DeepLearning/SavedTFliteModels/mnist_model_dwt_haar_lvl1_thresh0_185_quantized_2024-03-19.tflite (tflite, 104288 bytes, 4 tensors)

sequential/dense/BiasAdd/ReadVariableOp f4 [128]
0	0xbd2fe6d2	-0.042944737
1	0xbbb5a52b	-0.005543371
2	0xbbb5db74	-0.0055498425
3	0xbd044f6b	-0.0323023
4	0x3d433c19	0.047664735
5	0xbbb2edef	-0.005460493
6	0x3e1ca336	0.15296635
7	0xbbb4c3b6	-0.0055164946
8	0xbd78b1cd	-0.06071644
9	0x3d12024e	0.03564673
10	0x3e382feb	0.17987029
11	0xbbb35bcb	-0.005473589
12	0xbbb47524	-0.0055071283
13	0xbbb47524	-0.0055071283
14	0xbda28cbe	-0.07937001
15	0x3ea72c71	0.32651094
16	0x3e0b7a04	0.13620764
17	0xbe385da7	-0.18004476
18	0x3e63d248	0.22248185
19	0xbbb32ee0	-0.0054682344
20	0xbd27aab8	-0.040934294
21	0xbbb608d0	-0.0055552498
22	0xbbb46614	-0.0055053327
23	0xbbb4639a	-0.0055050375
24	0xbbb49c26	-0.0055117784
25	0xbbb49c26	-0.0055117784
26	0xbbb49f91	-0.005512186
27	0xbbb49edb	-0.005512101
28	0x3d88066f	0.06641852
29	0x3d66fcfb	0.056393605
30	0xbbb5ae91	-0.0055444916
31	0xbbb5ae84	-0.0055444855
32	0xbbb5a2dd	-0.0055430965
33	0xbbb5a2dd	-0.0055430965
34	0x3eb54106	0.3540117
35	0x3ec84404	0.39114392
36	0xbbb413ce	-0.005495525
37	0xbbb413ce	-0.005495525
38	0x3e105737	0.1409577
39	0x3e578bdc	0.21049446
40	0x3e80bdf2	0.25144917
41	0x3da61fb6	0.08111517
42	0x3e87477d	0.2642173
43	0x3e87477d	0.2642173
44	0x3e06ebd3	0.13175897
45	0x3e63558a	0.222006
46	0xbe2e85f7	-0.17043291
47	0xbe2e85f7	-0.17043291
48	0x3e236bd5	0.15959103
49	0xbd0befc2	-0.034164198
50	0x3e861165	0.26185146
51	0x3e861165	0.26185146
52	0xbbacaf49	-0.005269919
53	0x3e36b753	0.1784337
54	0x3e59b8df	0.21261929
55	0xbbb5ca5b	-0.0055478043
56	0xbbb4e973	-0.0055209934
57	0xbe9c61db	-0.30543408
58	0xbd62af3c	-0.055342898
59	0xbbb5cdf4	-0.005548233
60	0x3ebf8417	0.37405464
61	0xbbc49b57	-0.0059999633
62	0xbbfe7de5	-0.0077664726
63	0xbbfe7de5	-0.0077664726
64	0x00000000	0.0
65	0x00000000	0.0
66	0x00000000	0.0
67	0x00000000	0.0
68	0x00000000	0.0
69	0x00000000	0.0
70	0x00000000	0.0
71	0x00000000	0.0
72	0x00000000	0.0
73	0x00000000	0.0
74	0x00000000	0.0
75	0x00000000	0.0
76	0x00000000	0.0
77	0x00000000	0.0
78	0x00000000	0.0
79	0x00000000	0.0
80	0xbdf45489	-0.11930186
81	0xbda7bfd0	-0.08190882
82	0xbbcb4691	-0.0062034805
83	0xbbc49191	-0.005998798
84	0x3e8080b6	0.250982
85	0x3e54a730	0.20766902
86	0x3dce80fb	0.10083195
87	0x3dce80fb	0.10083195
88	0x00000000	0.0
89	0x00000000	0.0
90	0x00000000	0.0
91	0x00000000	0.0
92	0x00000000	0.0
93	0x00000000	0.0
94	0x00000000	0.0
95	0x00000000	0.0
96	0x00000000	0.0
97	0x00000000	0.0
98	0x00000000	0.0
99	0x00000000	0.0
100	0x00000000	0.0
101	0x00000000	0.0
102	0x00000000	0.0
103	0x00000000	0.0
104	0x00000000	0.0
105	0x00000000	0.0
106	0x00000000	0.0
107	0x00000000	0.0
108	0x00000000	0.0
109	0x00000000	0.0
110	0x00000000	0.0
111	0x00000000	0.0
112	0x00000000	0.0
113	0x00000000	0.0
114	0x00000000	0.0
115	0x00000000	0.0
116	0x00000000	0.0
117	0x00000000	0.0
118	0x00000000	0.0
119	0x00000000	0.0
120	0x00000000	0.0
121	0x00000000	0.0
122	0x00000000	0.0
123	0x00000000	0.0
124	0x00000000	0.0
125	0x00000000	0.0
126	0x00000000	0.0
127	0x00000000	0.0

sequential/dense_1/BiasAdd/ReadVariableOp f4 [10]
0	0xbe79af77	-0.24383341
1	0x3e24621f	0.16053055
2	0x3d5d02c4	0.053957716
3	0xbe757079	-0.23968686
4	0x3e364911	0.1780131
5	0x3e0848fd	0.13309093
6	0xbd3ee161	-0.046601657
7	0xbdf775ea	-0.12083037
8	0xbd4a56f0	-0.049399316
9	0x3d94eab5	0.07271329

sequential/dense/MatMul i1 [128, 784] scale=0.012292203 zero_point=0
0	0x00	0.0
1	0x00	0.0
2	0x00	0.0
3	0x00	0.0
4	0x00	0.0
5	0x00	0.0
6	0x00	0.0
7	0x00	0.0
8	0x00	0.0
9	0x00	0.0
10	0x00	0.0
11	0x00	0.0
12	0x08	0.09833762
13	0x04	0.04916881
14	0xf4	-0.14750643
15	0xfd	-0.036876608
16	0x00	0.0
17	0x00	0.0
18	0x00	0.0
19	0x00	0.0
20	0x00	0.0
21	0x00	0.0
22	0x00	0.0
23	0x00	0.0
24	0x00	0.0
25	0x00	0.0
26	0x00	0.0
27	0x00	0.0
28	0x00	0.0
29	0x00	0.0
30	0x00	0.0
31	0x00	0.0
32	0x04	0.04916881
33	0x0a	0.122922026
34	0x0f	0.18438303
35	0x13	0.23355184
36	0x1a	0.31959727
37	0x27	0.4793959
38	0x2b	0.5285647
39	0x35	0.65148675
40	0x3a	0.7129477
41	0x28	0.4916881
42	0xee	-0.22125965
43	0x17	0.28272066
44	0x15	0.25813624
45	0x20	0.39335048
46	0x29	0.5039803
47	0x29	0.5039803
48	0x2b	0.5285647
49	0x20	0.39335048
50	0x1a	0.31959727
51	0x16	0.27042845
52	0x00	0.0
53	0x00	0.0
54	0x00	0.0
55	0x00	0.0
56	0x00	0.0
57	0x00	0.0
58	0x06	0.073753215
59	0x10	0.19667524
60	0x1b	0.33188948
61	0x12	0.22125965
62	0x26	0.4671037
63	0x2a	0.5162725
64	0x17	0.28272066
65	0x02	0.024584405
66	0x0f	0.18438303
67	0x1f	0.38105828
68	0xff	-0.012292203
69	0xd6	-0.5162725
70	0xdf	-0.4056427
71	0xff	-0.012292203
72	0xf8	-0.09833762
73	0xfe	-0.024584405
74	0x17	0.28272066
75	0x10	0.19667524
76	0x10	0.19667524
77	0x1d	0.35647386
78	0x27	0.4793959
79	0x20	0.39335048
80	0x01	0.012292203
81	0xf6	-0.122922026
82	0x00	0.0
83	0x00	0.0
84	0x00	0.0
85	0x00	0.0
86	0xed	-0.23355184
87	0x08	0.09833762
88	0xfa	-0.073753215
89	0x0f	0.18438303
90	0x10	0.19667524
91	0x06	0.073753215
92	0x09	0.11062983
93	0x15	0.25813624
94	0x02	0.024584405
95	0x07	0.086045414
96	0xee	-0.22125965
97	0x01	0.012292203
98	0x12	0.22125965
99	0x12	0.22125965
100	0x04	0.04916881
101	0x0c	0.14750643
102	0x0c	0.14750643
103	0x02	0.024584405
104	0xf9	-0.086045414
105	0x15	0.25813624
106	0x21	0.4056427
107	0x3d	0.74982435
108	0x25	0.45481148
109	0xfe	-0.024584405
110	0xfa	-0.073753215
111	0x00	0.0
112	0x00	0.0
113	0x00	0.0
114	0xeb	-0.25813624
115	0xe9	-0.28272066
116	0x22	0.4179349
117	0x08	0.09833762
118	0xff	-0.012292203
119	0x06	0.073753215
120	0xfd	-0.036876608
121	0xfe	-0.024584405
122	0xf6	-0.122922026
123	0xf0	-0.19667524
124	0xf7	-0.11062983
125	0xf2	-0.17209083
126	0xfb	-0.061461013
127	0xfd	-0.036876608
128	0xfd	-0.036876608
129	0x0a	0.122922026
130	0x02	0.024584405
131	0xfc	-0.04916881
132	0xfe	-0.024584405
133	0x09	0.11062983
134	0x10	0.19667524
135	0x07	0.086045414
136	0x04	0.04916881
137	0x05	0.061461013
138	0x0b	0.13521422
139	0x1b	0.33188948
140	0x00	0.0
141	0x00	0.0
142	0xea	-0.27042845
143	0xda	-0.4671037
144	0x1d	0.35647386
145	0xfc	-0.04916881
146	0x0b	0.13521422
147	0x0a	0.122922026
148	0x00	0.0
149	0xea	-0.27042845
150	0xe4	-0.34418166
151	0xef	-0.20896745
152	0xf2	-0.17209083
153	0x0a	0.122922026
154	0x0d	0.15979864
155	0x09	0.11062983
156	0x05	0.061461013
157	0x11	0.20896745
158	0x0a	0.122922026
159	0x09	0.11062983
160	0xfc	-0.04916881
161	0xf1	-0.18438303
162	0xea	-0.27042845
163	0xe2	-0.36876607
164	0xf4	-0.14750643
165	0x1d	0.35647386
166	0x12	0.22125965
167	0x0e	0.17209083
168	0x00	0.0
169	0xf6	-0.122922026
170	0x15	0.25813624
171	0xf9	-0.086045414
172	0x08	0.09833762
173	0xfd	-0.036876608
174	0xff	-0.012292203
175	0xf7	-0.11062983
176	0xe7	-0.30730507
177	0xe3	-0.35647386
178	0xf0	-0.19667524
179	0xfe	-0.024584405
180	0x05	0.061461013
181	0x0e	0.17209083
182	0x10	0.19667524
183	0x14	0.24584405
184	0x0e	0.17209083
185	0x0e	0.17209083
186	0x03	0.036876608
187	0x05	0.061461013
188	0xfd	-0.036876608
189	0xfc	-0.04916881
190	0xfa	-0.073753215
191	0xf8	-0.09833762
192	0xeb	-0.25813624
193	0x09	0.11062983
194	0xe8	-0.29501286
195	0x0d	0.15979864
196	0x00	0.0
197	0xe8	-0.29501286
198	0x18	0.29501286
199	0x0f	0.18438303
200	0xf5	-0.13521422
201	0xe7	-0.30730507
202	0xf3	-0.15979864
203	0xe6	-0.31959727
204	0xe4	-0.34418166
205	0xfa	-0.073753215
206	0x0a	0.122922026
207	0x0a	0.122922026
208	0x08	0.09833762
209	0x0c	0.14750643
210	0xfe	-0.024584405
211	0x11	0.20896745
212	0x03	0.036876608
213	0x04	0.04916881
214	0x0b	0.13521422
215	0x01	0.012292203
216	0xfd	-0.036876608
217	0x04	0.04916881
218	0xf9	-0.086045414
219	0x02	0.024584405
220	0x11	0.20896745
221	0x11	0.20896745
222	0xf3	-0.15979864
223	0x09	0.11062983
224	0x17	0.28272066
225	0xf8	-0.09833762
226	0x0f	0.18438303
227	0x14	0.24584405
228	0xfa	-0.073753215
229	0xf3	-0.15979864
230	0x09	0.11062983
231	0xff	-0.012292203
232	0x08	0.09833762
233	0x11	0.20896745
234	0x10	0.19667524
235	0x12	0.22125965
236	0x10	0.19667524
237	0x10	0.19667524
238	0x07	0.086045414
239	0x04	0.04916881
240	0x06	0.073753215
241	0xf8	-0.09833762
242	0x03	0.036876608
243	0x09	0.11062983
244	0x09	0.11062983
245	0x0b	0.13521422
246	0xfc	-0.04916881
247	0x01	0.012292203
248	0x15	0.25813624
249	0x07	0.086045414
250	0x16	0.27042845
251	0xfe	-0.024584405
252	0xfe	-0.024584405
253	0x0a	0.122922026
254	0x01	0.012292203
255	0x19	0.30730507

sequential/dense_1/MatMul i1 [10, 128] scale=0.009982271 zero_point=0
0	0x1f	0.30945042
1	0xfe	-0.019964542
2	0x00	0.0
3	0x04	0.039929084
4	0x2a	0.41925538
5	0x00	0.0
6	0xfb	-0.049911357
7	0x00	0.0
8	0x1f	0.30945042
9	0xa7	-0.88842213
10	0xc8	-0.55900717
11	0x03	0.029946813
12	0x00	0.0
13	0x00	0.0
14	0x0b	0.10980498
15	0xfb	-0.049911357
16	0xf3	-0.12976952
17	0x90	-1.1180143
18	0x1e	0.29946813
19	0xff	-0.009982271
20	0x17	0.22959223
21	0x03	0.029946813
22	0xfc	-0.039929084
23	0x04	0.039929084
24	0xfe	-0.019964542
25	0xfe	-0.019964542
26	0x02	0.019964542
27	0x02	0.019964542
28	0xf5	-0.10980498
29	0xe1	-0.30945042
30	0xfe	-0.019964542
31	0x02	0.019964542
32	0x01	0.009982271
33	0x01	0.009982271
34	0xd5	-0.42923766
35	0xd0	-0.479149
36	0x00	0.0
37	0x00	0.0
38	0x0c	0.11978725
39	0x99	-1.0281739
40	0x15	0.20962769
41	0x10	0.15971634
42	0x0c	0.11978725
43	0x0c	0.11978725
44	0xd4	-0.43921992
45	0xf6	-0.099822715
46	0x0b	0.10980498
47	0x0b	0.10980498
48	0x01	0.009982271
49	0x08	0.07985817
50	0xe5	-0.26952133
51	0xe5	-0.26952133
52	0x00	0.0
53	0x04	0.039929084
54	0xf8	-0.07985817
55	0x00	0.0
56	0x03	0.029946813
57	0xcd	-0.50909585
58	0x07	0.069875896
59	0x00	0.0
60	0xe6	-0.25953904
61	0xff	-0.009982271
62	0x00	0.0
63	0x00	0.0
64	0x00	0.0
65	0x00	0.0
66	0x00	0.0
67	0x00	0.0
68	0x02	0.019964542
69	0xfe	-0.019964542
70	0x00	0.0
71	0x00	0.0
72	0xfe	-0.019964542
73	0xfe	-0.019964542
74	0x01	0.009982271
75	0x01	0.009982271
76	0x00	0.0
77	0x00	0.0
78	0x00	0.0
79	0x00	0.0
80	0xeb	-0.20962769
81	0xf5	-0.10980498
82	0x04	0.039929084
83	0xfd	-0.029946813
84	0x01	0.009982271
85	0x09	0.08984044
86	0x0b	0.10980498
87	0x0b	0.10980498
88	0x00	0.0
89	0x00	0.0
90	0x00	0.0
91	0x00	0.0
92	0x00	0.0
93	0x00	0.0
94	0x00	0.0
95	0x00	0.0
96	0xff	-0.009982271
97	0xff	-0.009982271
98	0x00	0.0
99	0xff	-0.009982271
100	0x01	0.009982271
101	0x01	0.009982271
102	0x01	0.009982271
103	0x01	0.009982271
104	0x06	0.059893627
105	0xf9	-0.069875896
106	0x02	0.019964542
107	0x02	0.019964542
108	0x00	0.0
109	0x00	0.0
110	0x00	0.0
111	0x00	0.0
112	0x02	0.019964542
113	0x02	0.019964542
114	0x00	0.0
115	0x00	0.0
116	0x00	0.0
117	0x00	0.0
118	0x00	0.0
119	0x00	0.0
120	0x01	0.009982271
121	0x01	0.009982271
122	0x05	0.049911357
123	0x05	0.049911357
124	0x00	0.0
125	0x00	0.0
126	0x00	0.0
127	0x00	0.0
128	0xb9	-0.70874125
129	0x02	0.019964542
130	0x00	0.0
131	0x31	0.48913127
132	0x12	0.17968088
133	0x00	0.0
134	0x85	-1.2278193
135	0x00	0.0
136	0xcc	-0.5190781
137	0x13	0.18966316
138	0xd7	-0.40927312
139	0x03	0.029946813
140	0x00	0.0
141	0x00	0.0
142	0x05	0.049911357
143	0x1c	0.27950358
144	0x14	0.19964543
145	0xef	-0.16969861
146	0xaa	-0.8584753
147	0xff	-0.009982271
148	0xdf	-0.32941493
149	0xfe	-0.019964542
150	0x04	0.039929084
151	0xfc	-0.039929084
152	0xfe	-0.019964542
153	0xfe	-0.019964542
154	0x02	0.019964542
155	0x02	0.019964542
156	0x1e	0.29946813
157	0x1a	0.25953904
158	0x02	0.019964542
159	0xfe	-0.019964542
160	0xff	-0.009982271
161	0xff	-0.009982271
162	0x0f	0.14973406
163	0x2d	0.4492022
164	0x00	0.0
165	0x00	0.0
166	0xe5	-0.26952133
167	0x09	0.08984044
168	0xe3	-0.28948587
169	0x59	0.88842213
170	0x25	0.36934403
171	0x25	0.36934403
172	0x10	0.15971634
173	0x0c	0.11978725
174	0xda	-0.3793263
175	0xda	-0.3793263
176	0x0a	0.099822715
177	0xe5	-0.26952133
178	0xd6	-0.41925538
179	0xd6	-0.41925538
180	0x00	0.0
181	0xfe	-0.019964542
182	0xec	-0.19964543
183	0x00	0.0
184	0x03	0.029946813
185	0xd5	-0.42923766
186	0xcb	-0.52906036
187	0x00	0.0
188	0x10	0.15971634
189	0x00	0.0
190	0x00	0.0
191	0x00	0.0
192	0x00	0.0
193	0x00	0.0
194	0x00	0.0
195	0x00	0.0
196	0xfe	-0.019964542
197	0x02	0.019964542
198	0x00	0.0
199	0x00	0.0
200	0xfe	-0.019964542
201	0xfe	-0.019964542
202	0x03	0.029946813
203	0x03	0.029946813
204	0x00	0.0
205	0x00	0.0
206	0x00	0.0
207	0x00	0.0
208	0xfd	-0.029946813
209	0xdb	-0.36934403
210	0xfc	-0.039929084
211	0x03	0.029946813
212	0x1c	0.27950358
213	0xe8	-0.2395745
214	0x10	0.15971634
215	0x10	0.15971634
216	0x00	0.0
217	0x00	0.0
218	0x00	0.0
219	0x00	0.0
220	0x00	0.0
221	0x00	0.0
222	0x00	0.0
223	0x00	0.0
224	0xff	-0.009982271
225	0xff	-0.009982271
226	0x00	0.0
227	0xff	-0.009982271
228	0x01	0.009982271
229	0x01	0.009982271
230	0x01	0.009982271
231	0x01	0.009982271
232	0x06	0.059893627
233	0xf9	-0.069875896
234	0xff	-0.009982271
235	0xff	-0.009982271
236	0x00	0.0
237	0x00	0.0
238	0x00	0.0
239	0x00	0.0
240	0xfe	-0.019964542
241	0xfe	-0.019964542
242	0x00	0.0
243	0x00	0.0
244	0x00	0.0
245	0x00	0.0
246	0x00	0.0
247	0x00	0.0
248	0x01	0.009982271
249	0x01	0.009982271
250	0xf9	-0.069875896
251	0xf9	-0.069875896
252	0x00	0.0
253	0x00	0.0
254	0x00	0.0
255	0x00	0.0
