DeepLearning/SavedTFliteModels/mnist_model_dwt_haar_lvl2_thresh0_2_quantized_2024-03-19.tflite (tflite, 104288 bytes, 4 tensors)

sequential/dense/BiasAdd/ReadVariableOp f4 [128]
00000000: 0000 0000 0000 0000 0000 0000 0000 0000
00000010: 0000 0000 0000 0000 0000 0000 0000 0000
00000020: 0000 0000 0000 0000 0000 0000 0000 0000
00000030: 0000 0000 0000 0000 0000 0000 0000 0000
00000040: 0000 0000 0000 0000 0000 0000 0000 0000
00000050: 0000 0000 0000 0000 0000 0000 0000 0000
00000060: 0000 0000 0000 0000 0000 0000 0000 0000
00000070: 0000 0000 0000 0000 0000 0000 0000 0000
00000080: 0000 0000 0000 0000 0000 0000 0000 0000
00000090: 0000 0000 0000 0000 0000 0000 0000 0000
000000a0: 0000 0000 0000 0000 0000 0000 0000 0000
000000b0: 0000 0000 0000 0000 0000 0000 0000 0000
000000c0: 1b40 1dbc 22df a7be a0ad 063d 9b85 8a3f
000000d0: cf5a 23bc 59de 22bc b66f 14bc ab10 28bf
000000e0: c81e 743f f3d2 abbb fedb 3dbe 1622 e63d
000000f0: 002e b63d b61d a3bb 91f6 94be 91f6 94be
00000100: 0000 0000 0000 0000 0000 0000 0000 0000
00000110: 0000 0000 0000 0000 0000 0000 0000 0000
00000120: 0000 0000 0000 0000 0000 0000 0000 0000
00000130: 0000 0000 0000 0000 0000 0000 0000 0000
00000140: 0000 0000 0000 0000 0000 0000 0000 0000
00000150: 0000 0000 0000 0000 0000 0000 0000 0000
00000160: 0000 0000 0000 0000 0000 0000 0000 0000
00000170: 0000 0000 0000 0000 0000 0000 0000 0000
00000180: 0000 0000 0000 0000 0000 0000 0000 0000
00000190: 0000 0000 0000 0000 0000 0000 0000 0000
000001a0: 0000 0000 0000 0000 0000 0000 0000 0000
000001b0: 0000 0000 0000 0000 0000 0000 0000 0000
000001c0: 0000 0000 0000 0000 0000 0000 0000 0000
000001d0: 0000 0000 0000 0000 0000 0000 0000 0000
000001e0: 0000 0000 0000 0000 0000 0000 0000 0000
000001f0: 0000 0000 0000 0000 0000 0000 0000 0000
0.0 0.0 0.0 0.0 0.0 0.0 0.0 0.0
0.0 0.0 0.0 0.0 0.0 0.0 0.0 0.0
0.0 0.0 0.0 0.0 0.0 0.0 0.0 0.0
0.0 0.0 0.0 0.0 0.0 0.0 0.0 0.0
0.0 0.0 0.0 0.0 0.0 0.0 0.0 0.0
0.0 0.0 0.0 0.0 0.0 0.0 0.0 0.0
-0.0095978035 -0.32787424 0.032880425 1.0822023 -0.009970381 -0.009940707 -0.009059837 -0.65650433
0.9535947 -0.005243653 -0.18540952 0.1123697 0.088954926 -0.004977907 -0.29094365 -0.29094365
0.0 0.0 0.0 0.0 0.0 0.0 0.0 0.0
0.0 0.0 0.0 0.0 0.0 0.0 0.0 0.0
0.0 0.0 0.0 0.0 0.0 0.0 0.0 0.0
0.0 0.0 0.0 0.0 0.0 0.0 0.0 0.0
0.0 0.0 0.0 0.0 0.0 0.0 0.0 0.0
0.0 0.0 0.0 0.0 0.0 0.0 0.0 0.0
0.0 0.0 0.0 0.0 0.0 0.0 0.0 0.0
0.0 0.0 0.0 0.0 0.0 0.0 0.0 0.0

sequential/dense_1/BiasAdd/ReadVariableOp f4 [10]
00000000: 0b73 03be 5744 e53e c9e6 4bbe c5df b0be
00000010: fb52 4b3d 8fb1 7b3f 1235 803d 1db4 013f
00000020: 567f 83bf 7ab3 49be
-0.12836854 0.44778702 -0.19912256 -0.34545723 0.049639683 0.9831781 0.06260122 0.50665456
-1.0273235 -0.19697371

sequential/dense/MatMul i1 [128, 784] scale=0.014635079 zero_point=0
00000000: 0000 0000 0000 0000 0000 0000 0000 0000
00000010: 0000 0000 0000 0000 0000 0000 0000 0000
00000020: 0000 0000 0000 0000 0000 0000 0000 0000
00000030: 0000 0000 0000 0000 0000 0000 0000 0000
00000040: 0000 0000 0000 0000 0000 0000 0000 0000
00000050: 0000 0000 0000 0000 0000 0000 0000 0000
00000060: 0000 0000 0000 0000 0000 0000 0000 0000
00000070: 0000 0000 0000 0000 0000 0000 0000 0000
00000080: 0000 0000 0000 0000 0000 0000 0000 0000
00000090: 0000 0000 0000 0000 0000 0000 0000 0000
000000a0: 0000 0000 0000 0000 0000 0000 0000 0000
000000b0: 0000 0000 0000 0000 0000 0000 0000 0000
000000c0: 0000 0000 0000 0000 0000 0000 0000 0000
000000d0: 0000 0000 0000 0000 0000 0000 0000 0000
000000e0: 0000 0000 0000 0000 0000 0000 0000 0000
000000f0: 0000 0000 0000 0000 0000 0000 0000 0000
0.0 0.0 0.0 0.0 0.0 0.0 0.0 0.0
0.0 0.0 0.0 0.0 0.0 0.0 0.0 0.0
0.0 0.0 0.0 0.0 0.0 0.0 0.0 0.0
0.0 0.0 0.0 0.0 0.0 0.0 0.0 0.0
0.0 0.0 0.0 0.0 0.0 0.0 0.0 0.0
0.0 0.0 0.0 0.0 0.0 0.0 0.0 0.0
0.0 0.0 0.0 0.0 0.0 0.0 0.0 0.0
0.0 0.0 0.0 0.0 0.0 0.0 0.0 0.0
0.0 0.0 0.0 0.0 0.0 0.0 0.0 0.0
0.0 0.0 0.0 0.0 0.0 0.0 0.0 0.0
0.0 0.0 0.0 0.0 0.0 0.0 0.0 0.0
0.0 0.0 0.0 0.0 0.0 0.0 0.0 0.0
0.0 0.0 0.0 0.0 0.0 0.0 0.0 0.0
0.0 0.0 0.0 0.0 0.0 0.0 0.0 0.0
0.0 0.0 0.0 0.0 0.0 0.0 0.0 0.0
0.0 0.0 0.0 0.0 0.0 0.0 0.0 0.0
0.0 0.0 0.0 0.0 0.0 0.0 0.0 0.0
0.0 0.0 0.0 0.0 0.0 0.0 0.0 0.0
0.0 0.0 0.0 0.0 0.0 0.0 0.0 0.0
0.0 0.0 0.0 0.0 0.0 0.0 0.0 0.0
0.0 0.0 0.0 0.0 0.0 0.0 0.0 0.0
0.0 0.0 0.0 0.0 0.0 0.0 0.0 0.0
0.0 0.0 0.0 0.0 0.0 0.0 0.0 0.0
0.0 0.0 0.0 0.0 0.0 0.0 0.0 0.0
0.0 0.0 0.0 0.0 0.0 0.0 0.0 0.0
0.0 0.0 0.0 0.0 0.0 0.0 0.0 0.0
0.0 0.0 0.0 0.0 0.0 0.0 0.0 0.0
0.0 0.0 0.0 0.0 0.0 0.0 0.0 0.0
0.0 0.0 0.0 0.0 0.0 0.0 0.0 0.0
0.0 0.0 0.0 0.0 0.0 0.0 0.0 0.0
0.0 0.0 0.0 0.0 0.0 0.0 0.0 0.0
0.0 0.0 0.0 0.0 0.0 0.0 0.0 0.0

sequential/dense_1/MatMul i1 [10, 128] scale=0.008863575 zero_point=0
00000000: 0000 fd03 ff02 0000 02fe 01ff ffff 0100
00000010: 0000 0707 ff01 0000 0001 0101 ffff 00ff
00000020: 0000 fefe 0000 0404 0000 0000 0000 0000
00000030: 06de 22c0 0000 03ba f805 0635 e801 e9e9
00000040: 0000 0000 0000 0101 fefe 04ff 0000 fd03
00000050: 0000 0000 ffff 0000 fefe fdfd ffff 0101
00000060: 0303 0404 0000 0000 0000 0000 01fe 0000
00000070: 0000 0000 0000 0000 ffff 0001 0000 0000
00000080: 0000 fd03 02ff 0000 fe02 ff01 ffff 0001
00000090: 0000 fafa ff01 0000 0100 0101 ffff ff00
000000a0: 0000 0202 0000 fbfb 0000 0000 0000 0000
000000b0: 0692 1326 0000 0330 da05 17d6 b201 0000
000000c0: 0101 0000 0000 0101 fefe ff04 0000 03fd
000000d0: 0000 0000 0101 0000 fefe 0707 ffff 0000
000000e0: 0303 ffff 0000 0000 0000 0000 fe01 0000
000000f0: 0000 0000 0000 0000 ffff 0001 0000 0000
0.0 0.0 -0.026590724 0.026590724 -0.008863575 0.01772715 0.0 0.0
0.01772715 -0.01772715 0.008863575 -0.008863575 -0.008863575 -0.008863575 0.008863575 0.0
0.0 0.0 0.062045023 0.062045023 -0.008863575 0.008863575 0.0 0.0
0.0 0.008863575 0.008863575 0.008863575 -0.008863575 -0.008863575 0.0 -0.008863575
0.0 0.0 -0.01772715 -0.01772715 0.0 0.0 0.0354543 0.0354543
0.0 0.0 0.0 0.0 0.0 0.0 0.0 0.0
0.053181447 -0.30136153 0.30136153 -0.5672688 0.0 0.0 0.026590724 -0.62045026
-0.0709086 0.044317875 0.053181447 0.46976948 -0.21272579 0.008863575 -0.20386222 -0.20386222
0.0 0.0 0.0 0.0 0.0 0.0 0.008863575 0.008863575
-0.01772715 -0.01772715 0.0354543 -0.008863575 0.0 0.0 -0.026590724 0.026590724
0.0 0.0 0.0 0.0 -0.008863575 -0.008863575 0.0 0.0
-0.01772715 -0.01772715 -0.026590724 -0.026590724 -0.008863575 -0.008863575 0.008863575 0.008863575
0.026590724 0.026590724 0.0354543 0.0354543 0.0 0.0 0.0 0.0
0.0 0.0 0.0 0.0 0.008863575 -0.01772715 0.0 0.0
0.0 0.0 0.0 0.0 0.0 0.0 0.0 0.0
-0.008863575 -0.008863575 0.0 0.008863575 0.0 0.0 0.0 0.0
0.0 0.0 -0.026590724 0.026590724 0.01772715 -0.008863575 0.0 0.0
-0.01772715 0.01772715 -0.008863575 0.008863575 -0.008863575 -0.008863575 0.0 0.008863575
0.0 0.0 -0.053181447 -0.053181447 -0.008863575 0.008863575 0.0 0.0
0.008863575 0.0 0.008863575 0.008863575 -0.008863575 -0.008863575 -0.008863575 0.0
0.0 0.0 0.01772715 0.01772715 0.0 0.0 -0.044317875 -0.044317875
0.0 0.0 0.0 0.0 0.0 0.0 0.0 0.0
0.053181447 -0.9749932 0.16840792 0.33681583 0.0 0.0 0.026590724 0.42545158
-0.33681583 0.044317875 0.20386222 -0.37227014 -0.69135886 0.008863575 0.0 0.0
0.008863575 0.008863575 0.0 0.0 0.0 0.0 0.008863575 0.008863575
-0.01772715 -0.01772715 -0.008863575 0.0354543 0.0 0.0 0.026590724 -0.026590724
0.0 0.0 0.0 0.0 0.008863575 0.008863575 0.0 0.0
-0.01772715 -0.01772715 0.062045023 0.062045023 -0.008863575 -0.008863575 0.0 0.0
0.026590724 0.026590724 -0.008863575 -0.008863575 0.0 0.0 0.0 0.0
0.0 0.0 0.0 0.0 -0.01772715 0.008863575 0.0 0.0
0.0 0.0 0.0 0.0 0.0 0.0 0.0 0.0
-0.008863575 -0.008863575 0.0 0.008863575 0.0 0.0 0.0 0.0
