DeepLearning/Depricated/SavedTFliteModels/mnist_model_dwt_haar_lvl1_thresh0.1_quantized_2024-03-16.tflite (tflite, 104288 bytes, 4 tensors)

sequential/dense/BiasAdd/ReadVariableOp f4 [128]
-0.005999524 -0.1345863 -0.0059919828 -0.07654905 -0.05222053 -0.024107266 0.06640372 -0.0060037514
-0.17983896 -0.006004173 0.035988696 -0.103845 -0.037043314 -0.27002954 -0.07531846 0.09274154
0.21713756 0.03169169 -0.0068857092 0.108715795 -0.17749439 0.053600173 0.2682407 -0.0060040522
-0.006003839 -0.20986061 -0.08463361 -0.0060002417 0.07063082 0.03245775 0.008774946 0.2569799
0.09382707 0.36390498 -0.0059997975 0.14590427 0.17575888 0.16082466 -0.039212458 0.028353054
0.01896412 -0.10797369 -0.0060002115 -0.032822784 0.003196225 0.018034728 -0.13223897 -0.14404608
0.055110283 0.016687226 0.08905998 -0.006003279 0.08445293 -0.05938123 -0.006000762 -0.005900848
0.30690908 0.17008314 0.013169911 0.10467341 -0.020488212 0.037335172 -0.09980818 -0.006002
-0.2585877 -0.01740569 -0.09379888 -0.0060035605 0.44416007 -0.13530657 0.038655598 -0.0093968995
-0.0060016066 -0.0012259805 -0.0060037887 -0.22472481 0.22780605 0.10808157 0.23242275 0.18490788
0.008526277 0.04862323 0.023660379 0.078539796 -0.021092119 -0.0059965937 -0.006003399 -0.0060040453
-0.007165594 -0.006001444 -0.16517168 -0.018190093 -0.0052418304 0.16986081 -0.0060035624 0.14305069
0.12979917 -0.30456623 0.21467766 -0.10386334 -0.006002418 0.2332085 -0.03973368 0.021882793
-0.10519067 0.25080788 0.40861073 -0.0060019395 -0.090835 -0.081256814 0.21422067 0.024812872
0.057368334 0.050595835 0.18255022 0.040774655 0.11465987 -0.0060041677 -0.0060035484 -0.14371768
0.17198984 0.20138536 0.28971303 -0.23270404 0.16752061 -0.21173643 -0.14783914 0.054426074
00000000: a897 c4bb fed0 09be 6558 c4bb c0c5 9cbd
00000010: 32e5 55bd 9a7c c5bc acfe 873d 1ebb c4bb
00000020: b427 38be a7be c4bb e268 133d b0ac d4bd
00000030: bbba 17bd 5041 8abe 9140 9abd 47ef bd3d
00000040: 4f59 5e3e 25cf 013d 84a1 e1bb 63a6 de3d
00000050: 17c1 35be db8b 5b3d d856 893e a4bd c4bb
00000060: dabb c4bb b3e5 56be 6354 adbd ad9d c4bb
00000070: e4a6 903d 6bf2 043d cbc4 0f3c df92 833e
00000080: 6828 c03d c151 ba3e f399 c4bb ee67 153e
00000090: 23fa 333e 38af 243e 3e9d 20bd aa44 e83c
000000a0: a45a 9b3c 4f21 ddbd 6c9d c4bb 2f71 06bd
000000b0: c277 513b 91bd 933c a769 07be d180 13be
000000c0: 52bb 613d a6b3 883c 1465 b63d 27b7 c4bb
000000d0: a8f5 ac3d bc39 73bd 0aa2 c4bb e75b c1bb
000000e0: 3023 9d3e 462a 2e3e 9cc6 573c 035f d63d
000000f0: e5d6 a7bc c4ec 183d 3b68 ccbd 6dac c4bb
00000100: 9b65 84be 6196 8ebc a119 c0bd 84b9 c4bb
00000110: f368 e33e ce8d 0abe 5555 1e3d 74f5 19bc
00000120: 20a9 c4bb 14b1 a0ba 6ebb c4bb 431e 66be
00000130: fd45 693e df59 dd3d 3b00 6e3e 7e58 3d3e
00000140: ccb1 0b3c 2729 473d 69d3 c13c 79d9 a03d
00000150: 61c9 acbc 137f c4bb 29b8 c4bb 95bd c4bb
00000160: 5ccd eabb c3a7 c4bb c422 29be 6403 95bc
00000170: a9c3 abbb feef 2d3e 88b9 c4bb e17b 123e
00000180: 13ea 043e 1bf0 9bbe 76d4 5b3e 4eb6 d4bd
00000190: efaf c4bb 36ce 6e3e c9bf 22bd 8b43 b33c
000001a0: 356e d7bd e469 803e 6d35 d13e ebab c4bb
000001b0: b307 babd f969 a6bd aa5c 5b3e 5d44 cb3c
000001c0: 0ffb 6a3d 943d 4f3d 72ee 3a3e 5303 273d
000001d0: cbd2 ea3d 9cbe c4bb 6ab9 c4bb ba2a 13be
000001e0: 1b1e 303e f737 4e3e 4455 943e f849 6ebe
000001f0: 868a 2b3e 6fd1 58be 2563 17be e0ed 5e3d

sequential/dense_1/BiasAdd/ReadVariableOp f4 [10]
-0.17212537 -0.051954165 -0.019382345 -0.23052798 0.19648683 0.13140082 0.0025450962 -0.08136343
0.15801615 -0.017258013
00000000: a241 30be e4cd 54bd b9c7 9ebc 870f 6cbe
00000010: d833 493e f08d 063e a1cb 263b dfa1 a6bd
00000020: fcce 213e ad60 8dbc

sequential/dense/MatMul i1 [128, 784] scale=0.0103722885 zero_point=0
0.0 0.0 0.0103722885 -0.0103722885 0.0 0.0 0.0 0.0
0.0 0.0 0.0 0.0 0.0 0.0 0.0 0.0
0.0 0.0 0.0 0.0 0.0 0.0 0.0 0.0
0.0 0.0 0.0 0.0 0.0 0.0 0.0 0.0
0.0 0.0 0.0 0.0 0.0 0.0 0.0 0.0
0.0 0.0 0.0 0.0 0.0 0.0 0.0 0.0
0.0 0.0 0.0 0.0 0.0 0.0 0.0 0.0
0.0 0.0 0.0 0.0 -0.0103722885 -0.0103722885 0.0103722885 0.0103722885
0.0 0.0 0.0 0.0 0.0 0.0 0.0 -0.0103722885
-0.0103722885 -0.0103722885 -0.0103722885 0.0 0.0 0.0 0.0 0.0
0.0 0.0 0.0 0.0 0.0 0.0 0.0 0.0
0.0 0.0 0.0 0.0 0.0 0.0 0.0 0.0
-0.0103722885 -0.0103722885 -0.0103722885 -0.0103722885 -0.0103722885 0.0 0.0 -0.0103722885
-0.0103722885 -0.0103722885 -0.0103722885 0.0 0.0 0.0 0.0 0.0
0.0 0.0 0.0 0.0 0.0 0.0 0.0 -0.0103722885
-0.0103722885 -0.0103722885 -0.0103722885 -0.0103722885 -0.0103722885 -0.0103722885 -0.0103722885 0.0103722885
-0.0103722885 -0.0103722885 0.0 0.0 -0.0103722885 -0.0103722885 -0.0103722885 0.0
0.0 0.0 0.0 0.0 0.0 0.0 0.0 0.0
0.0 0.0 0.0 -0.0103722885 -0.0103722885 0.0 -0.0103722885 0.0
-0.0103722885 -0.0103722885 -0.020744577 0.0103722885 -0.0103722885 -0.0103722885 -0.0103722885 -0.0103722885
-0.0103722885 -0.0103722885 0.0 0.0 0.0 0.0 0.0 0.0
-0.0103722885 -0.0103722885 0.0 0.0 0.0 0.0 0.0 0.0
0.0 0.0103722885 0.0103722885 0.0103722885 0.0 0.0 -0.0103722885 -0.0103722885
-0.0103722885 -0.0103722885 -0.0103722885 -0.0103722885 0.0103722885 0.0103722885 0.0 0.0
0.0 0.0 0.0 0.0 0.0 0.0 0.0 0.0
0.0 0.0 0.0 0.0 0.0 0.0103722885 0.0103722885 0.0
-0.0103722885 -0.0103722885 -0.0103722885 -0.0103722885 0.0 0.0 -0.0103722885 0.0
0.0 0.0 0.0 0.0 0.0 0.0 0.0 0.0
0.0 0.0 0.0 0.0 -0.0103722885 -0.0103722885 -0.0103722885 -0.0103722885
-0.0103722885 -0.0103722885 -0.0103722885 -0.0103722885 -0.0103722885 -0.0103722885 -0.0103722885 -0.0103722885
-0.0103722885 -0.0103722885 0.0103722885 0.0103722885 0.0 0.0 0.0 0.0
0.0 0.0 0.0 0.0 0.0 0.0 0.0 0.0
00000000: 0000 01ff 0000 0000 0000 0000 0000 0000
00000010: 0000 0000 0000 0000 0000 0000 0000 0000
00000020: 0000 0000 0000 0000 0000 0000 0000 0000
00000030: 0000 0000 0000 0000 0000 0000 ffff 0101
00000040: 0000 0000 0000 00ff ffff ff00 0000 0000
00000050: 0000 0000 0000 0000 0000 0000 0000 0000
00000060: ffff ffff ff00 00ff ffff ff00 0000 0000
00000070: 0000 0000 0000 00ff ffff ffff ffff ff01
00000080: ffff 0000 ffff ff00 0000 0000 0000 0000
00000090: 0000 00ff ff00 ff00 ffff fe01 ffff ffff
000000a0: ffff 0000 0000 0000 ffff 0000 0000 0000
000000b0: 0001 0101 0000 ffff ffff ffff 0101 0000
000000c0: 0000 0000 0000 0000 0000 0000 0001 0100
000000d0: ffff ffff 0000 ff00 0000 0000 0000 0000
000000e0: 0000 0000 ffff ffff ffff ffff ffff ffff
000000f0: ffff 0101 0000 0000 0000 0000 0000 0000

sequential/dense_1/MatMul i1 [10, 128] scale=0.009510627 zero_point=0
-0.057063762 -0.58965886 0.019021254 0.19021255 0.047553137 0.19021255 0.06657439 -0.019021254
-0.028531881 -0.019021254 0.14265941 -0.009510627 -0.29482943 0.23776567 -0.057063762 0.06657439
0.18070191 0.13314877 -0.028531881 -0.37091446 -0.20923379 -0.15217003 0.29482943 0.038042508
0.019021254 0.13314877 -0.78938204 0.019021254 -0.39944634 -0.47553134 0.18070191 0.13314877
-0.12363815 -0.30434006 0.038042508 0.104616895 0.19972317 -0.6277014 -0.8274245 0.19021255
0.019021254 0.06657439 -0.038042508 -0.019021254 -0.095106274 -0.104616895 0.17119129 -0.20923379
-0.44699946 -0.28531882 0.2472763 0.009510627 0.29482943 0.14265941 0.019021254 -0.057063762
-0.095106274 -0.54210573 0.038042508 0.2472763 0.29482943 -0.63721204 -0.095106274 -0.104616895
0.19021255 0.3518932 0.12363815 -0.057063762 -0.43748885 0.14265941 0.18070191 -0.7798714
-0.06657439 0.3138507 -0.057063762 -0.7418289 -1.0556796 0.36140382 -0.019021254 0.25678694
-0.29482943 -0.085595645 0.028531881 -0.9415521 -0.038042508 0.047553137 0.076085016 -0.06657439
0.0 0.009510627 0.3518932 0.2472763 -0.028531881 0.16168065 -0.009510627 0.3899357
-0.57063764 -0.3138507 0.19972317 0.23776567 -0.085595645 -0.26629755 0.095106274 -0.3138507
0.085595645 -0.25678694 -0.2472763 -0.038042508 0.076085016 -0.81791395 -0.104616895 -0.19021255
0.06657439 0.028531881 -0.076085016 -0.29482943 0.019021254 -0.038042508 0.047553137 -0.5135739
-0.085595645 0.085595645 0.25678694 0.114127524 0.0 -0.52308446 -0.104616895 -0.6657439
0.047553137 0.114127524 0.038042508 0.2472763 -0.18070191 0.114127524 0.114127524 0.0
-0.009510627 0.028531881 -0.095106274 -0.19972317 -0.58965886 -0.17119129 0.19972317 0.23776567
-0.13314877 -0.41846758 0.085595645 -0.4565101 -0.28531882 -0.23776567 0.104616895 -0.06657439
0.0 -0.104616895 0.43748885 0.028531881 0.41846758 0.22825505 -0.6657439 -0.5516164
0.36140382 0.3233613 -0.047553137 -0.047553137 0.34238258 0.561127 0.085595645 0.085595645
-0.14265941 -0.19021255 0.038042508 0.057063762 -0.28531882 -0.6942758 0.14265941 -0.15217003
-0.3138507 -0.33287194 0.36140382 0.047553137 -0.6467226 -0.21874443 0.028531881 -0.057063762
-0.019021254 0.19021255 0.19972317 0.22825505 -0.4945526 0.21874443 0.104616895 0.104616895
0.14265941 -0.6942758 -0.19972317 -0.057063762 -0.20923379 0.076085016 -0.36140382 0.18070191
-0.057063762 0.36140382 -0.047553137 -0.12363815 0.15217003 -0.7988927 0.7608502 -0.9415521
-0.6467226 0.076085016 -0.2472763 0.16168065 -0.019021254 0.047553137 0.076085016 -0.057063762
-0.009510627 0.0 -0.29482943 -0.15217003 -0.028531881 0.3518932 0.028531881 0.68476516
-0.39944634 0.057063762 0.48504198 0.16168065 -0.038042508 -1.0081265 -0.5991695 0.41846758
-0.057063762 0.20923379 0.18070191 0.047553137 -0.12363815 -0.17119129 0.076085016 -0.15217003
-0.06657439 -0.5516164 -0.43748885 0.37091446 -0.22825505 0.0 -0.085595645 0.13314877
-0.3138507 -0.3518932 -0.3233613 -0.057063762 -0.114127524 0.028531881 0.19021255 0.12363815
00000000: fac2 0214 0514 07fe fdfe 0fff e119 fa07
00000010: 130e fdd9 eaf0 1f04 020e ad02 d6ce 130e
00000020: f3e0 040b 15be a914 0207 fcfe f6f5 12ea
00000030: d1e2 1a01 1f0f 02fa f6c7 041a 1fbd f6f5
00000040: 1425 0dfa d20f 13ae f921 fab2 9126 fe1b
00000050: e1f7 039d fc05 08f9 0001 251a fd11 ff29
00000060: c4df 1519 f7e4 0adf 09e5 e6fc 08aa f5ec
00000070: 0703 f8e1 02fc 05ca f709 1b0c 00c9 f5ba
00000080: 050c 041a ed0c 0c00 ff03 f6eb c2ee 1519
00000090: f2d4 09d0 e2e7 0bf9 00f5 2e03 2c18 bac6
000000a0: 2622 fbfb 243b 0909 f1ec 0406 e2b7 0ff0
000000b0: dfdd 2605 bce9 03fa fe14 1518 cc17 0b0b
000000c0: 0fb7 ebfa ea08 da13 fa26 fbf3 10ac 509d
000000d0: bc08 e611 fe05 08fa ff00 e1f0 fd25 0348
000000e0: d606 3311 fc96 c12c fa16 1305 f3ee 08f0
000000f0: f9c6 d227 e800 f70e dfdb defa f403 140d
