DeepLearning/Depricated/SavedTFliteModels/mnist_model_nn_quant.tflite (tflite, 104288 bytes, 4 tensors)

sequential/dense/BiasAdd/ReadVariableOp f4 [128]
000000 32 c4 dd 3c a2 ed 47 be 4e 18 4c be 6a 9a 01 be
       0.027071092 -0.19524243 -0.19931147 -0.1265656
000010 d2 e3 4a 3c 69 6b 8d 3d 92 8c c5 bb d6 b4 c8 bc
       0.012383418 0.069052525 -0.00602872 -0.024500292
000020 5e b5 2e 3e 1b fb c9 3b 14 75 3d 3c 38 97 4e 3e
       0.17061374 0.0061639673 0.011563558 0.20174873
000030 7f 3d fd bd 5b 85 de bd 7a 90 b1 bc f2 46 39 3e
       -0.12365245 -0.10865279 -0.021675337 0.1809347
000040 1d 16 1e 3c ae d4 ad 3d bb ac 04 3d 56 24 47 3e
       0.009648827 0.08487831 0.03239129 0.19447455
000050 64 77 fb 3d a2 c1 64 3b b5 c9 15 3e e4 98 ad 3d
       0.12278631 0.0034905453 0.14627726 0.08476427
000060 cb c3 02 3e ab aa fa bc ab e9 5c bd 31 8a 16 3e
       0.12770002 -0.030598959 -0.05393378 0.14701153
000070 5c 3e a4 bc e4 54 0f 3e 24 0b 86 be b7 e8 be 3d
       -0.020049267 0.13997227 -0.26180375 0.093217306
000080 44 dd a0 3e a8 cf 0a 3e 97 0c 06 be a7 72 4c 3e
       0.31418812 0.13555777 -0.1309074 0.19965611
000090 10 29 c8 3c 13 04 a4 3d 86 3d c5 bc ba d5 79 bc
       0.024433643 0.080085896 -0.024077188 -0.01524871
0000a0 fa fd 2e be 09 c9 81 3d b9 60 d0 bc 24 17 a6 3d
       -0.17089072 0.063371725 -0.025436746 0.081098825
0000b0 96 1d 79 3c 97 53 13 3e 23 19 11 3d f7 2a ee 3c
       0.015204808 0.14387356 0.035424363 0.029073222
0000c0 35 20 5b 3e 8d 56 73 3e 00 07 f5 bd 85 b5 d3 3d
       0.21399005 0.23763485 -0.11964226 0.103373565
0000d0 2d 1e 38 3e 90 7a 4f 3e b2 b8 28 3e cb 19 8d bd
       0.17980261 0.20261598 0.16476706 -0.06889685
0000e0 0d 2b da bd 1c 07 7c 3d ce c6 48 3e f0 8a 73 bd
       -0.106527425 0.061530218 0.19607088 -0.059458673
0000f0 0b 11 0a 3c 79 d2 69 be 99 82 b0 bc 19 e3 90 bc
       0.008426915 -0.22834195 -0.021546649 -0.017686414
000100 bf a4 3d 3e 3c 6e ff bc be a7 1f 3c 19 06 37 bd
       0.18519877 -0.031180494 0.009744583 -0.04468355
000110 30 bd 0b bd 0e b0 08 3e cb 3d d2 3c 43 83 39 3d
       -0.03411597 0.1334841 0.02566423 0.045291197
000120 17 48 f9 3d df 0e 96 3d 5d a9 f2 bd d0 bb 03 3e
       0.12171953 0.07327055 -0.1184871 0.12864614
000130 30 03 7a bc b7 ae 51 be a3 c0 1c 3e d3 b6 1c bd
       -0.015259549 -0.20476805 0.1530786 -0.038260292
000140 29 27 99 3e 5d 3f e8 bc 3c ae f5 3d 30 17 2e 3c
       0.2991269 -0.028350526 0.11996123 0.0106256455
000150 a1 58 1f 3e 5b 37 6d 3e 51 61 32 3e eb 0b 46 3d
       0.15561153 0.23165648 0.17419936 0.04835121
000160 c2 c9 83 3d fd 10 99 be 47 da 02 be 85 e5 22 bd
       0.064349666 -0.29895774 -0.12778579 -0.039769668
000170 0f 9d b0 3d f0 54 31 be a1 0d 59 3e 93 04 96 bb
       0.086237065 -0.17317557 0.21196605 -0.004578182
000180 93 cc 9d bd 80 77 2c 3e ec 04 4b 3e 81 77 1b be
       -0.07705035 0.1684246 0.19826096 -0.15182306
000190 4d ee 20 be 9b d2 45 bd 1f 5b d9 bd e3 47 cd 3d
       -0.15715905 -0.048296552 -0.10613083 0.10023477
0001a0 6f 39 ee bb 28 14 56 3d 1a eb c5 3c 95 70 02 be
       -0.00727003 0.052265316 0.024159957 -0.12738259
0001b0 0c 1f c3 3d 11 b6 b7 3d 69 56 50 bc d9 0d 08 3e
       0.09527406 0.08970273 -0.012715914 0.13286532
0001c0 d5 35 8d 3c f9 64 c6 bc 82 d4 63 bd b4 84 d1 3d
       0.017237583 -0.02421807 -0.055622585 0.10230389
0001d0 40 4c 8f 3e 75 0f 3c bd e1 bb 32 3e a6 e6 46 be
       0.27987862 -0.04591318 0.17454483 -0.19423923
0001e0 22 e7 d6 bd e5 8a c9 3c fa f2 c1 bd 08 7f 25 3d
       -0.10493304 0.024602363 -0.09470172 0.04040435
0001f0 90 e4 9a bd b4 aa ee bd e1 b6 93 3d 0f 10 e7 3b
       -0.07563126 -0.11653653 0.07212616 0.007051475

sequential/dense_1/BiasAdd/ReadVariableOp f4 [10]
000000 b5 e5 1b be 48 92 cb bd 1b 77 cb 3c d6 9f 2c be
       -0.15224345 -0.0994001 0.024837067 -0.16857848
000010 f8 51 98 3d 4f 96 15 3e 9f 4c 7a 3c ca af 1d be
       0.07437509 0.1460812 0.015277057 -0.1539909
000020 0d 4a 69 3e f8 58 62 bc
       0.22782154 -0.013815157

sequential/dense/MatMul i1 [128, 784] scale=0.009281772 zero_point=0
000000 08 04 fe fd f8 06 08 f9 03 fc fe ff fe 05 ff f9
       0.07425418 0.03712709 -0.018563544 -0.027845316 -0.07425418 0.05569063 0.07425418 -0.06497241 0.027845316 -0.03712709 -0.018563544 -0.009281772 -0.018563544 0.046408862 -0.009281772 -0.06497241
000010 02 f9 08 fc 08 fe 05 fe 04 08 04 02 05 03 09 fd
       0.018563544 -0.06497241 0.07425418 -0.03712709 0.07425418 -0.018563544 0.046408862 -0.018563544 0.03712709 0.07425418 0.03712709 0.018563544 0.046408862 0.027845316 0.08353595 -0.027845316
000020 00 fc f9 f9 02 fb fa fc f9 0e 03 f6 fd f9 f0 f5
       0.0 -0.03712709 -0.06497241 -0.06497241 0.018563544 -0.046408862 -0.05569063 -0.03712709 -0.06497241 0.12994482 0.027845316 -0.092817724 -0.027845316 -0.06497241 -0.14850836 -0.10209949
000030 f2 f8 01 ff fd 05 03 02 fb 03 03 0d 00 ff f5 f5
       -0.12994482 -0.07425418 0.009281772 -0.009281772 -0.027845316 0.046408862 0.027845316 0.018563544 -0.046408862 0.027845316 0.027845316 0.12066304 0.0 -0.009281772 -0.10209949 -0.10209949
000040 fc 03 f3 f0 dc e6 ee e8 d4 dd df ee f3 f4 eb 08
       -0.03712709 0.027845316 -0.12066304 -0.14850836 -0.3341438 -0.24132608 -0.1670719 -0.22276253 -0.40839797 -0.32486203 -0.3062985 -0.1670719 -0.12066304 -0.11138126 -0.19491722 0.07425418
000050 01 07 04 fc fe ff f7 0c 0e 06 f2 f1 04 f4 02 fa
       0.009281772 0.06497241 0.03712709 -0.03712709 -0.018563544 -0.009281772 -0.08353595 0.11138126 0.12994482 0.05569063 -0.12994482 -0.13922659 0.03712709 -0.11138126 0.018563544 -0.05569063
000060 ee d0 ee df eb df e4 e2 f3 f9 0b 14 05 0c 0c 04
       -0.1670719 -0.44552505 -0.1670719 -0.3062985 -0.19491722 -0.3062985 -0.25988963 -0.27845317 -0.12066304 -0.06497241 0.10209949 0.18563545 0.046408862 0.11138126 0.11138126 0.03712709
000070 f9 fa f7 0b 10 f4 f8 0b ea e7 fd fe 0d 02 01 f6
       -0.06497241 -0.05569063 -0.08353595 0.10209949 0.14850836 -0.11138126 -0.07425418 0.10209949 -0.20419899 -0.23204431 -0.027845316 -0.018563544 0.12066304 0.018563544 0.009281772 -0.092817724
000080 df fb fc eb 00 01 01 10 13 22 1d 04 f9 fa f8 f9
       -0.3062985 -0.046408862 -0.03712709 -0.19491722 0.0 0.009281772 0.009281772 0.14850836 0.17635368 0.31558025 0.2691714 0.03712709 -0.06497241 -0.05569063 -0.07425418 -0.06497241
000090 fc 0e 16 17 10 0b 00 19 28 2a 21 14 0a 0c 0a f5
       -0.03712709 0.12994482 0.20419899 0.21348076 0.14850836 0.10209949 0.0 0.23204431 0.3712709 0.38983443 0.3062985 0.18563545 0.092817724 0.11138126 0.092817724 -0.10209949
0000a0 ee f2 f4 f9 01 25 1c 07 f8 fd 02 12 0d 19 0b 08
       -0.1670719 -0.12994482 -0.11138126 -0.06497241 0.009281772 0.34342557 0.25988963 0.06497241 -0.07425418 -0.027845316 0.018563544 0.1670719 0.12066304 0.23204431 0.10209949 0.07425418
0000b0 09 18 0f 17 20 29 24 20 24 15 05 01 ed 08 0a 0d
       0.08353595 0.22276253 0.13922659 0.21348076 0.2970167 0.38055265 0.3341438 0.2970167 0.3341438 0.19491722 0.046408862 0.009281772 -0.17635368 0.07425418 0.092817724 0.12066304
0000c0 08 06 01 05 fa f6 fe 19 f8 fc 18 02 0c 00 0a 08
       0.07425418 0.05569063 0.009281772 0.046408862 -0.05569063 -0.092817724 -0.018563544 0.23204431 -0.07425418 -0.03712709 0.22276253 0.018563544 0.11138126 0.0 0.092817724 0.07425418
0000d0 13 11 fe 1e 0a 08 09 06 f2 fc 08 16 19 15 fa fb
       0.17635368 0.15779012 -0.018563544 0.27845317 0.092817724 0.07425418 0.08353595 0.05569063 -0.12994482 -0.03712709 0.07425418 0.20419899 0.23204431 0.19491722 -0.05569063 -0.046408862
0000e0 03 03 04 fc ee fe 0b f7 11 f9 09 05 0a 00 f1 09
       0.027845316 0.027845316 0.03712709 -0.03712709 -0.1670719 -0.018563544 0.10209949 -0.08353595 0.15779012 -0.06497241 0.08353595 0.046408862 0.092817724 0.0 -0.13922659 0.08353595
0000f0 0c 0b 16 1a 0a fe 04 1c 23 11 06 fe 0f 00 ec f6
       0.11138126 0.10209949 0.20419899 0.24132608 0.092817724 -0.018563544 0.03712709 0.25988963 0.32486203 0.15779012 0.05569063 -0.018563544 0.13922659 0.0 -0.18563545 -0.092817724

sequential/dense_1/MatMul i1 [10, 128] scale=0.0107772 zero_point=0
000000 0f 09 15 f3 13 01 0f 0a 0a c8 01 09 16 0a 14 1d
       0.16165799 0.096994795 0.22632119 -0.1401036 0.2047668 0.0107772 0.16165799 0.10777199 0.10777199 -0.6035232 0.0107772 0.096994795 0.2370984 0.10777199 0.21554399 0.3125388
000010 01 03 ac 1b ca 15 16 0d eb bb c5 c2 1c e2 17 da
       0.0107772 0.0323316 -0.90528476 0.2909844 -0.5819688 0.22632119 0.2370984 0.1401036 -0.22632119 -0.7436268 -0.6358548 -0.66818637 0.3017616 -0.32331598 0.24787559 -0.4095336
000020 f8 17 e7 ba 0d fe f9 04 1f 0b e9 d2 17 00 da 01
       -0.0862176 0.24787559 -0.26942998 -0.75440395 0.1401036 -0.0215544 -0.0754404 0.0431088 0.33409318 0.1185492 -0.24787559 -0.49575117 0.24787559 0.0 -0.4095336 0.0107772
000030 16 f2 1d 1b d6 d1 a8 0d 0d f4 cd d4 0c eb ca 01
       0.2370984 -0.1508808 0.3125388 0.2909844 -0.45264238 -0.5065284 -0.9483936 0.1401036 0.1401036 -0.1293264 -0.5496372 -0.4741968 0.1293264 -0.22632119 -0.5819688 0.0107772
000040 db e2 dd d8 e2 a4 c2 01 14 ff 10 f0 0e f0 11 eb
       -0.39875638 -0.32331598 -0.37720197 -0.43108797 -0.32331598 -0.99150234 -0.66818637 0.0107772 0.21554399 -0.0107772 0.1724352 -0.1724352 0.1508808 -0.1724352 0.1832124 -0.22632119
000050 0d 24 f6 d4 b6 2c f2 d0 12 0c 33 11 db 1f 35 c7
       0.1401036 0.38797918 -0.10777199 -0.4741968 -0.79751277 0.4741968 -0.1508808 -0.5173056 0.19398959 0.1293264 0.5496372 0.1832124 -0.39875638 0.33409318 0.5711916 -0.6143004
000060 c2 b2 0b 0f cd 06 ce db c1 fd 06 e4 d0 ed 1d 07
       -0.66818637 -0.8406216 0.1185492 0.16165799 -0.5496372 0.0646632 -0.53885996 -0.39875638 -0.6789636 -0.0323316 0.0646632 -0.3017616 -0.5173056 -0.2047668 0.3125388 0.0754404
000070 16 12 0a ee da 1c e0 e4 05 15 f9 d9 dc 0f ee 0c
       0.2370984 0.19398959 0.10777199 -0.19398959 -0.4095336 0.3017616 -0.3448704 -0.3017616 0.053885996 0.22632119 -0.0754404 -0.4203108 -0.38797918 0.16165799 -0.19398959 0.1293264
000080 bb cc f1 02 fd 1e 20 cf 17 02 b3 08 ea 00 b5 14
       -0.7436268 -0.5604144 -0.16165799 0.0215544 -0.0323316 0.32331598 0.3448704 -0.5280828 0.24787559 0.0215544 -0.82984436 0.0862176 -0.2370984 0.0 -0.80828995 0.21554399
000090 e4 07 15 24 1f b0 e6 fc 07 02 29 08 e2 06 dc f0
       -0.3017616 0.0754404 0.22632119 0.38797918 0.33409318 -0.86217594 -0.2802072 -0.0431088 0.0754404 0.0215544 0.44186518 0.0862176 -0.32331598 0.0646632 -0.38797918 -0.1724352
0000a0 f4 07 2c 24 0b 07 de 23 07 f5 11 20 eb d4 09 eb
       -0.1293264 0.0754404 0.4741968 0.38797918 0.1185492 0.0754404 -0.3664248 0.37720197 0.0754404 -0.1185492 0.1832124 0.3448704 -0.22632119 -0.4741968 0.096994795 -0.22632119
0000b0 ec 1b 19 e4 2f f1 d5 c9 d8 11 fc e3 c3 fc 27 10
       -0.21554399 0.2909844 0.26942998 -0.3017616 0.5065284 -0.16165799 -0.4634196 -0.59274596 -0.43108797 0.1832124 -0.0431088 -0.3125388 -0.6574092 -0.0431088 0.4203108 0.1724352
0000c0 50 d7 11 ec 2c 0b fd e5 dd e2 0f f4 06 22 18 e2
       0.86217594 -0.44186518 0.1832124 -0.21554399 0.4741968 0.1185492 -0.0323316 -0.2909844 -0.37720197 -0.32331598 0.16165799 -0.1293264 0.0646632 0.3664248 0.2586528 -0.32331598
0000d0 d3 e5 01 15 ec 11 f2 15 0b f3 f2 d5 2c e9 df d8
       -0.484974 -0.2909844 0.0107772 0.22632119 -0.21554399 0.1832124 -0.1508808 0.22632119 0.1185492 -0.1401036 -0.1508808 -0.4634196 0.4741968 -0.24787559 -0.3556476 -0.43108797
0000e0 02 2a 21 bb f7 1b 14 d8 fb 13 01 ff 43 ff f3 f3
       0.0215544 0.45264238 0.3556476 -0.7436268 -0.096994795 0.2909844 0.21554399 -0.43108797 -0.053885996 0.2047668 0.0107772 -0.0107772 0.72207236 -0.0107772 -0.1401036 -0.1401036
0000f0 bc bb 20 f9 e8 bc c0 13 fc 01 fa 0d 14 07 0b be
       -0.7328496 -0.7436268 0.3448704 -0.0754404 -0.2586528 -0.7328496 -0.6897408 0.2047668 -0.0431088 0.0107772 -0.0646632 0.1401036 0.21554399 0.0754404 0.1185492 -0.7112952
