DeepLearning(Phase2)/Depricated(Phase1)/SavedTFliteModels/mnist_model_dwt_haar_lvl2_thresh0_01_quantized_2024-03-19.tflite (tflite, 104288 bytes, 4 tensors)

sequential/dense/BiasAdd/ReadVariableOp f4 [128]
000000 03 8c 2b 3d 97 7d 8e 3c 0b 76 6c 3d 33 f2 a8 bc
       0.041881572 0.01739387 0.057729762 -0.020623302
000010 f4 1d ab 3c f0 87 06 3c 27 ea 3a 3e e0 68 eb 3d
       0.020888306 0.008211121 0.18253385 0.11494613
000020 9f eb 94 bc 87 6a 77 3d 94 61 33 3e e9 f2 e6 3d
       -0.01817876 0.060404327 0.17517692 0.112768
000030 63 40 f7 bc 81 d6 8a 3d 0d 3c 2c 3d 02 42 16 3d
       -0.03018207 0.067791946 0.042049456 0.036684044
000040 32 fc a3 bc e0 65 b5 bd 01 0d f7 3d fd 6b bf 3d
       -0.020017717 -0.08857322 0.12063027 0.09346769
000050 f8 73 c6 bd 37 ed ab 3d bc 8d 64 bd 39 6a bc 3a
       -0.09690088 0.083948545 -0.05579923 0.0014374919
000060 85 d8 21 bd 9c 72 86 bd ca 4e 8b 3d 16 0f 97 3d
       -0.03951313 -0.06564829 0.06802137 0.07375924
000070 89 0d 3f bd e0 1e f6 b9 77 3c a5 3d c2 e3 5d 3d
       -0.046643768 -0.0004694378 0.080681734 0.054172285
000080 d0 73 84 bd a4 11 40 3e ff 63 27 3c 96 b7 86 bc
       -0.06467402 0.1875673 0.010216712 -0.016444962
000090 77 d5 f6 3d f0 4b a8 3d ee 6b 43 3c 26 be 96 bb
       0.12052434 0.08217609 0.011927588 -0.004600304
0000a0 31 1e b5 3d 84 7c 25 3d e3 46 af 3d 82 55 53 bc
       0.08843649 0.04040195 0.085584424 -0.012898805
0000b0 7f 69 b7 3b d4 1e 3f bb 01 66 e1 3d c4 3e af 3d
       0.005597293 -0.0029162662 0.11005784 0.085568935
0000c0 93 b7 15 3d bc 6e 0b bd 4d 61 6a bd f9 08 e4 3d
       0.036552023 -0.03404115 -0.0572217 0.11134524
0000d0 3c d8 f3 3d 07 bb 2a 3c 00 e0 95 3d 44 d9 0d 3d
       0.11906478 0.010420567 0.07318115 0.03463103
0000e0 16 15 04 bd 9e 99 d2 3c 0e 42 88 3d 0b b5 16 3c
       -0.03224667 0.025708016 0.06653224 0.009198437
0000f0 cf b4 ab 3d ff 5a 62 bd e4 a5 48 bd 4a 79 a0 bd
       0.08384096 -0.055262562 -0.04898633 -0.07835634
000100 a9 8d a4 3d 78 2e be 3d 15 22 79 bd 6e 95 0d 3d
       0.08034832 0.09286207 -0.06082352 0.034566335
000110 d8 86 47 3b 17 d8 bc 3d ba 8d cd 3d df de 01 bc
       0.0030445363 0.09220903 0.10036798 -0.007926672
000120 3c 82 37 3c 5c a5 31 3c 8e 88 84 3c 63 ab b9 3d
       0.011200484 0.010842647 0.016178396 0.090658925
000130 e7 e2 36 3e c7 2a bf 3c 9f 14 46 3d d8 9a 9a bb
       0.17859994 0.023335828 0.04835951 -0.004718166
000140 b2 ba e6 3d fa 29 eb bd 3d 93 51 bd e8 9b 0a 3e
       0.11266078 -0.11482616 -0.051165808 0.13536036
000150 bf 58 ab 3c 64 23 3c bc b9 6e ea bd 9f 99 6e 3a
       0.02091634 -0.011483047 -0.114469 0.0009101871
000160 1f 2d 07 3e fd c3 31 3d 34 03 99 39 dd 73 82 3c
       0.13200806 0.0433998 0.0002918482 0.015924389
000170 8b 68 c3 bb 02 6d c6 3c 3c 89 db 3d b4 ef 0e 3d
       -0.00596339 0.0242219 0.10719535 0.034896567
000180 ae 46 1e 3d 4a 6a ef bd d6 a4 b4 bd 9b e5 ac 3c
       0.038641624 -0.11690195 -0.088205025 0.021105578
000190 43 54 db bc a6 b9 81 3d d2 bc 91 3c 3e 1e f4 bb
       -0.026773578 0.06334238 0.017790232 -0.007449894
0001a0 ca f6 cd bc 4c 3c 91 3d 4a 12 ce 3d 02 37 0d 3c
       -0.025142092 0.07091579 0.10062082 0.008619072
0001b0 b2 50 75 bd 93 14 01 3d 10 45 ad 3d e4 a6 ae 3c
       -0.05989141 0.03151376 0.08460438 0.021319814
0001c0 13 2f 2e 3c 87 38 77 3d 87 c5 bf 3d 82 3f 35 bd
       0.010631341 0.060356643 0.09363847 -0.04425002
0001d0 89 79 68 bd e4 07 c3 bd 51 02 c8 3d dd 7a 56 bd
       -0.05675653 -0.095229894 0.09766067 -0.052363265
0001e0 a6 38 c0 3d c6 e4 13 3d 41 32 ae bb 88 96 3d bd
       0.09385805 0.036106847 -0.0053160493 -0.046286136
0001f0 99 1c 86 3d ad fa 26 bd 7b 4c 75 bd ff 95 29 3d
       0.06548423 -0.040766407 -0.05988739 0.041402813

sequential/dense_1/BiasAdd/ReadVariableOp f4 [10]
000000 3d 25 0d be c9 71 be bc 8d 79 65 3d bd 83 cb bd
       -0.13783737 -0.023247616 0.056024123 -0.099372365
000010 b9 7e 38 3d a5 41 a6 3d ed 59 58 bd f4 7a bc bc
       0.045042727 0.081179895 -0.052820135 -0.023007847
000020 1d 1b a3 3d b0 16 88 3c
       0.07964156 0.01661238

sequential/dense/MatMul i1 [128, 784] scale=0.0054829484 zero_point=0
000000 01 f7 03 fb fd fb 09 06 04 fc fc 01 fe 00 06 03
       0.0054829484 -0.049346536 0.016448844 -0.027414743 -0.016448844 -0.027414743 0.049346536 0.03289769 0.021931794 -0.021931794 -0.021931794 0.0054829484 -0.010965897 0.0 0.03289769 0.016448844
000010 07 05 05 ff ff f5 fd 05 f9 04 fb 03 ff f7 0a 0a
       0.038380638 0.027414743 0.027414743 -0.0054829484 -0.0054829484 -0.06031243 -0.016448844 0.027414743 -0.038380638 0.021931794 -0.027414743 0.016448844 -0.0054829484 -0.049346536 0.054829486 0.054829486
000020 fb 00 14 13 1d 0e 1b f8 05 0a ff f1 ea f4 23 1e
       -0.027414743 0.0 0.10965897 0.10417602 0.15900551 0.076761276 0.14803961 -0.043863587 0.027414743 0.054829486 -0.0054829484 -0.082244225 -0.12062486 -0.06579538 0.19190319 0.16448845
000030 17 17 18 0e 00 08 05 fb f5 f6 f9 fc fc 07 14 26
       0.12610781 0.12610781 0.13159075 0.076761276 0.0 0.043863587 0.027414743 -0.027414743 -0.06031243 -0.054829486 -0.038380638 -0.021931794 -0.021931794 0.038380638 0.10965897 0.20835204
000040 17 0c 20 20 0e 04 1a 05 ef 00 ff f4 f9 1b 1d 19
       0.12610781 0.06579538 0.17545435 0.17545435 0.076761276 0.021931794 0.14255665 0.027414743 -0.09321012 0.0 -0.0054829484 -0.06579538 -0.038380638 0.14803961 0.15900551 0.13707371
000050 fb fc f3 f8 0b fc e5 f4 ef 19 0f 1f 1c 0a 08 1d
       -0.027414743 -0.021931794 -0.071278326 -0.043863587 0.06031243 -0.021931794 -0.14803961 -0.06579538 -0.09321012 0.13707371 0.082244225 0.1699714 0.15352255 0.054829486 0.043863587 0.15900551
000060 07 09 03 00 fd 00 0b 06 f4 14 10 1b 09 fa fe f7
       0.038380638 0.049346536 0.016448844 0.0 -0.016448844 0.0 0.06031243 0.03289769 -0.06579538 0.10965897 0.087727174 0.14803961 0.049346536 -0.03289769 -0.010965897 -0.049346536
000070 f5 0b eb f0 1a 0c 11 0e 0a 0b 05 12 1d 11 03 08
       -0.06031243 0.06031243 -0.11514191 -0.087727174 0.14255665 0.06579538 0.09321012 0.076761276 0.054829486 0.06031243 0.027414743 0.09869307 0.15900551 0.09321012 0.016448844 0.043863587
000080 11 0d 05 04 01 f9 03 fc 0d 03 1d 11 0a f3 f3 f9
       0.09321012 0.071278326 0.027414743 0.021931794 0.0054829484 -0.038380638 0.016448844 -0.021931794 0.071278326 0.016448844 0.15900551 0.09321012 0.054829486 -0.071278326 -0.071278326 -0.038380638
000090 1d d9 e9 00 fc 05 0c 1b 1b 1b 12 ff 02 11 fa 06
       0.15900551 -0.21383499 -0.12610781 0.0 -0.021931794 0.027414743 0.06579538 0.14803961 0.14803961 0.14803961 0.09869307 -0.0054829484 0.010965897 0.09321012 -0.03289769 0.03289769
0000a0 0c ed e7 f0 0b 14 11 0f 0b f1 fd fe fc df ee 03
       0.06579538 -0.10417602 -0.13707371 -0.087727174 0.06031243 0.10965897 0.09321012 0.082244225 0.06031243 -0.082244225 -0.016448844 -0.010965897 -0.021931794 -0.18093729 -0.09869307 0.016448844
0000b0 07 06 04 0d 18 1c 0d 16 17 06 0f ff 00 ed e8 09
       0.038380638 0.03289769 0.021931794 0.071278326 0.13159075 0.15352255 0.071278326 0.12062486 0.12610781 0.03289769 0.082244225 -0.0054829484 0.0 -0.10417602 -0.13159075 0.049346536
0000c0 ff 14 f1 1a f7 e8 04 07 15 ee 00 e2 0a 02 fd 0a
       -0.0054829484 0.10965897 -0.082244225 0.14255665 -0.049346536 -0.13159075 0.021931794 0.038380638 0.11514191 -0.09869307 0.0 -0.16448845 0.054829486 0.010965897 -0.016448844 0.054829486
0000d0 06 1a 09 19 0d 08 fb f4 f1 03 ef f5 08 0e 04 16
       0.03289769 0.14255665 0.049346536 0.13707371 0.071278326 0.043863587 -0.027414743 -0.06579538 -0.082244225 0.016448844 -0.09321012 -0.06031243 0.043863587 0.076761276 0.021931794 0.12062486
0000e0 e6 e4 09 08 14 f7 06 03 05 fa 0c 0e 06 0e 01 f1
       -0.14255665 -0.15352255 0.049346536 0.043863587 0.10965897 -0.049346536 0.03289769 0.016448844 0.027414743 -0.03289769 0.06579538 0.076761276 0.03289769 0.076761276 0.0054829484 -0.082244225
0000f0 04 00 f1 05 05 02 f9 ec f5 03 13 14 01 ec f4 0d
       0.021931794 0.0 -0.082244225 0.027414743 0.027414743 0.010965897 -0.038380638 -0.10965897 -0.06031243 0.016448844 0.10417602 0.10965897 0.0054829484 -0.10965897 -0.06579538 0.071278326

sequential/dense_1/MatMul i1 [10, 128] scale=0.0079961745 zero_point=0
000000 eb bb ce 13 d9 03 e5 e3 17 00 c7 fe ed f4 fb 15
       -0.16791967 -0.55173606 -0.39980873 0.15192732 -0.31185082 0.023988523 -0.21589671 -0.23188905 0.18391201 0.0 -0.45578194 -0.015992349 -0.15192732 -0.09595409 -0.039980873 0.16791967
000010 e8 13 e9 0e 28 07 16 e5 d2 2b d1 1a 29 de ea 05
       -0.19190818 0.15192732 -0.18391201 0.11194644 0.319847 0.05597322 0.17591584 -0.21589671 -0.36782402 0.3438355 -0.3758202 0.20790054 0.32784316 -0.27186993 -0.17591584 0.039980873
000020 f4 c2 fe cf ea 15 23 cd 00 01 da 0b ec ef e8 11
       -0.09595409 -0.49576283 -0.015992349 -0.39181256 -0.17591584 0.16791967 0.2798661 -0.4078049 0.0 0.0079961745 -0.30385464 0.08795792 -0.1599235 -0.13593496 -0.19190818 0.13593496
000030 11 f5 15 e8 e8 15 19 12 20 01 c0 15 eb 1f 15 12
       0.13593496 -0.08795792 0.16791967 -0.19190818 -0.19190818 0.16791967 0.19990437 0.14393114 0.25587758 0.0079961745 -0.51175517 0.16791967 -0.16791967 0.24788141 0.16791967 0.14393114
000040 c0 f5 1c bf ed 07 db 0b f9 0c c2 02 d9 13 10 d4
       -0.51175517 -0.08795792 0.22389288 -0.51975137 -0.15192732 0.05597322 -0.29585844 0.08795792 -0.05597322 0.09595409 -0.49576283 0.015992349 -0.31185082 0.15192732 0.12793879 -0.35183167
000050 ed 18 03 2f 00 0b 15 f9 bf 16 e1 29 de fc e9 f5
       -0.15192732 0.19190818 0.023988523 0.3758202 0.0 0.08795792 0.16791967 -0.05597322 -0.51975137 0.17591584 -0.24788141 0.32784316 -0.27186993 -0.031984698 -0.18391201 -0.08795792
000060 f0 0b 10 f9 09 1c 13 bd f7 ea f7 12 fa fe d1 15
       -0.12793879 0.08795792 0.12793879 -0.05597322 0.07196557 0.22389288 0.15192732 -0.5357437 -0.07196557 -0.17591584 -0.07196557 0.14393114 -0.047977045 -0.015992349 -0.3758202 0.16791967
000070 fa d3 f0 15 0f 1c fe 0b f9 13 ef 24 0e 06 12 db
       -0.047977045 -0.35982785 -0.12793879 0.16791967 0.11994262 0.22389288 -0.015992349 0.08795792 -0.05597322 0.15192732 -0.13593496 0.28786227 0.11194644 0.047977045 0.14393114 -0.29585844
000080 dc d9 c4 eb 1c 0c 20 e4 0d 05 1c da 0a d7 dc f7
       -0.28786227 -0.31185082 -0.47977048 -0.16791967 0.22389288 0.09595409 0.25587758 -0.22389288 0.10395027 0.039980873 0.22389288 -0.30385464 0.07996175 -0.32784316 -0.28786227 -0.07196557
000090 20 f6 14 13 df 13 e0 0d f4 50 35 01 1b 52 16 07
       0.25587758 -0.07996175 0.1599235 0.15192732 -0.26387376 0.15192732 -0.25587758 0.10395027 -0.09595409 0.639694 0.42379725 0.0079961745 0.21589671 0.6556863 0.17591584 0.05597322
0000a0 1a 09 27 0a 12 df de 1c f6 21 f1 f8 f0 d9 dc 09
       0.20790054 0.07196557 0.31185082 0.07996175 0.14393114 -0.26387376 -0.27186993 0.22389288 -0.07996175 0.26387376 -0.11994262 -0.063969396 -0.12793879 -0.31185082 -0.28786227 0.07196557
0000b0 0a 27 e6 2a c9 f7 e9 1c 18 f1 17 db 0f fc 06 d0
       0.07996175 0.31185082 -0.20790054 0.33583933 -0.4397896 -0.07196557 -0.18391201 0.22389288 0.19190818 -0.11994262 0.18391201 -0.29585844 0.11994262 -0.031984698 0.047977045 -0.38381636
0000c0 0f 0c c6 01 11 06 1d ee 16 fc 10 c3 ea 1e ec 0a
       0.11994262 0.09595409 -0.4637781 0.0079961745 0.13593496 0.047977045 0.23188905 -0.14393114 0.17591584 -0.031984698 0.12793879 -0.48776665 -0.17591584 0.23988524 -0.1599235 0.07996175
0000d0 e6 eb 0f 1a f8 0a ed db 14 0a 2a 4a 33 e2 eb 0e
       -0.20790054 -0.16791967 0.11994262 0.20790054 -0.063969396 0.07996175 -0.15192732 -0.29585844 0.1599235 0.07996175 0.33583933 0.5917169 0.4078049 -0.23988524 -0.16791967 0.11194644
0000e0 d8 04 df df 16 f7 cf 0f ee ed 15 e3 e3 de 20 d5
       -0.319847 0.031984698 -0.26387376 -0.26387376 0.17591584 -0.07196557 -0.39181256 0.11994262 -0.14393114 -0.15192732 0.16791967 -0.23188905 -0.23188905 -0.27186993 0.25587758 -0.3438355
0000f0 f6 10 df d7 0c 07 fa e2 d1 0f d7 f2 0c 0e e1 fe
       -0.07996175 0.12793879 -0.26387376 -0.32784316 0.09595409 0.05597322 -0.047977045 -0.23988524 -0.3758202 0.11994262 -0.32784316 -0.11194644 0.09595409 0.11194644 -0.24788141 -0.015992349
