DeepLearning(Phase2)/Depricated(Phase1)/SavedTFliteModels/mnist_model_dwt_haar_lvl2_thresh0_1_quantized_2024-03-18.tflite (tflite, 104288 bytes, 4 tensors)

sequential/dense/BiasAdd/ReadVariableOp f4 [128]
0	0xbdaa1414	-0.08304611
1	0x3dbee5cc	0.09321174
2	0xbdb8e7dd	-0.090285994
3	0x3dd12341	0.10211802
4	0x3d95dc58	0.07317418
5	0x3bcd9399	0.0062736985
6	0xbdce9c6d	-0.100884296
7	0x3d5c1e6d	0.053739954
8	0x3d323b51	0.0435136
9	0x3d53314e	0.051560692
10	0xbc02c54a	-0.007981608
11	0x3d3401dc	0.043947086
12	0x3d4b6f31	0.049666587
13	0xbca3e147	-0.020004882
14	0xbbc4b60e	-0.006003148
15	0xbbc488b7	-0.005997743
16	0x3e14e8e4	0.14541966
17	0x3d93493a	0.07191701
18	0xbd8cb369	-0.06870157
19	0xbd42548e	-0.04744392
20	0x3dd4fe20	0.10400033
21	0x3d88d343	0.0668092
22	0xbc306c43	-0.010767999
23	0xbcdd3a0c	-0.027005218
24	0x3e093dd6	0.13402495
25	0x3d0bd204	0.034135833
26	0x3db4ed85	0.08834366
27	0x3aa5acb0	0.0012639966
28	0xbbb5f659	-0.0055530486
29	0xbc5c4430	-0.013443992
30	0x3d3d93d8	0.046283573
31	0xbbc4a7e6	-0.0060014604
32	0xbd06958e	-0.03285747
33	0xbd5f9d93	-0.054593634
34	0xbbc4be41	-0.0060041253
35	0x3d904c2c	0.07045779
36	0x3d6e29cf	0.05814534
37	0x3d85106e	0.06497274
38	0xbd1c1a6c	-0.038111135
39	0x3d46684e	0.048439316
40	0x3d8dc84d	0.0692297
41	0xbdad4bb0	-0.08461702
42	0xbcd89409	-0.026437776
43	0x3db993b1	0.09061373
44	0xbc3f357f	-0.011670469
45	0x3e625dfb	0.22106163
46	0x3cdc23f0	0.026872605
47	0x3c0b4346	0.008499926
48	0xbd8ddfb0	-0.06927431
49	0xbd21e4db	-0.039524894
50	0x3deb9aab	0.1150411
51	0xbd31969b	-0.04335652
52	0x3e117b39	0.14207162
53	0xbbd01bc3	-0.0063509657
54	0x3de77a92	0.11302675
55	0xbc8b7f77	-0.017028553
56	0xbda64bb4	-0.08119908
57	0xbd3f56fb	-0.04671381
58	0xbd9ea4c3	-0.077462696
59	0xbdbb1011	-0.09133924
60	0x3e09b570	0.13448119
61	0x3e025c5d	0.12730546
62	0x3dac8be7	0.08425122
63	0xbbc4b2ee	-0.0060027754
64	0x3db0f528	0.0864051
65	0x3cd40890	0.02588299
66	0xbd68c0b1	-0.05682439
67	0x3b50fc99	0.0031888841
68	0xbd9ad830	-0.07560766
69	0x3cbbee86	0.022940885
70	0xbbc4b8d0	-0.0060034767
71	0x3d2036da	0.03911481
72	0x3dbb9d0f	0.09160816
73	0x3aef20e4	0.0018244055
74	0xbd8c95ff	-0.06864547
75	0xbd5ed7f1	-0.054405157
76	0x3d1c341a	0.038135625
77	0x3d8afcc3	0.06786492
78	0xbbaec4c2	-0.005333514
79	0x3ce354d3	0.027750408
80	0x3df88ce5	0.121362485
81	0x3db2bbc5	0.087272204
82	0xbda4c459	-0.08045263
83	0xbdb71f39	-0.08941502
84	0xbdb11922	-0.08647372
85	0x3e0c382d	0.13693304
86	0xbd07b54d	-0.033131886
87	0x3dd53453	0.10410371
88	0x3dc09857	0.094040565
89	0x3deb5627	0.11491042
90	0xbbc4a96c	-0.006001642
91	0xbc11bf4b	-0.008895705
92	0x3dac57ed	0.08415208
93	0xbda76e73	-0.081753634
94	0xbbf44a6e	-0.007455162
95	0xbcc7311a	-0.024315406
96	0x3dcf5f84	0.1012564
97	0xbbc4162e	-0.0059840893
98	0x3c0e89c4	0.008699838
99	0x3d228759	0.03967986
100	0x3dd78c59	0.10524816
101	0x3d27f9c4	0.04100968
102	0xbd82f391	-0.06394113
103	0xbcfdeea5	-0.030997584
104	0xbda08238	-0.07837337
105	0x3d4b8a9e	0.049692743
106	0x3e04a412	0.12953213
107	0xbbb95a95	-0.00565655
108	0xbcea7143	-0.02861846
109	0x3d2a6fa2	0.041610368
110	0x3d220b96	0.03956183
111	0xbc09e69e	-0.0084168
112	0x3dc0f04a	0.094208315
113	0x3b98868f	0.0046547125
114	0x3b2e6420	0.0026609972
115	0xbb0fa0f8	-0.0021916013
116	0x3d0339b1	0.03203744
117	0xbccf908e	-0.025337484
118	0x3dae9181	0.085238464
119	0xbb3cfeb0	-0.002883833
120	0xbbb5fdd7	-0.0055539417
121	0xbd004cbb	-0.031323176
122	0x3d9ade53	0.07561936
123	0x3bef09fd	0.007294892
124	0x3d7f78ef	0.06237119
125	0x3d3cf1b4	0.046128944
126	0xbdea2bf6	-0.11434166
127	0x3e01b227	0.12665616

sequential/dense_1/BiasAdd/ReadVariableOp f4 [10]
0	0xbd9f851a	-0.07789059
1	0x3d9659fc	0.07341382
2	0xbc6cb051	-0.014446334
3	0xbd25e454	-0.040500954
4	0x3d3167d9	0.043311927
5	0x3da414a1	0.08011747
6	0x3bb38c9c	0.0054794084
7	0x3d66be9a	0.056334116
8	0xbde714ac	-0.1128324
9	0xbc93edbe	-0.0180577

sequential/dense/MatMul i1 [128, 784] scale=0.0035858415 zero_point=0
0	0x00	0.0
1	0x00	0.0
2	0x00	0.0
3	0x00	0.0
4	0x00	0.0
5	0x00	0.0
6	0x00	0.0
7	0x00	0.0
8	0x00	0.0
9	0x00	0.0
10	0x00	0.0
11	0x00	0.0
12	0x06	0.021515049
13	0x06	0.021515049
14	0x00	0.0
15	0x00	0.0
16	0x03	0.0107575245
17	0x03	0.0107575245
18	0xfd	-0.0107575245
19	0xfd	-0.0107575245
20	0x00	0.0
21	0x00	0.0
22	0x00	0.0
23	0x00	0.0
24	0x00	0.0
25	0x00	0.0
26	0x01	0.0035858415
27	0xff	-0.0035858415
28	0x00	0.0
29	0x00	0.0
30	0x00	0.0
31	0x00	0.0
32	0x02	0.007171683
33	0x07	0.02510089
34	0x0e	0.05020178
35	0x0d	0.04661594
36	0x16	0.07888851
37	0x17	0.08247435
38	0x0e	0.05020178
39	0x11	0.060959306
40	0x1b	0.09681772
41	0x18	0.086060196
42	0x07	0.02510089
43	0x0d	0.04661594
44	0x04	0.014343366
45	0x15	0.075302675
46	0x16	0.07888851
47	0x14	0.07171683
48	0x12	0.06454515
49	0x18	0.086060196
50	0x0d	0.04661594
51	0x04	0.014343366
52	0x02	0.007171683
53	0x02	0.007171683
54	0xfe	-0.007171683
55	0xfe	-0.007171683
56	0xff	-0.0035858415
57	0xff	-0.0035858415
58	0x00	0.0
59	0x04	0.014343366
60	0x0f	0.053787623
61	0x06	0.021515049
62	0x0d	0.04661594
63	0x18	0.086060196
64	0x1c	0.10040356
65	0x19	0.08964604
66	0x25	0.13267614
67	0x23	0.12550445
68	0x1f	0.11116108
69	0x1b	0.09681772
70	0x19	0.08964604
71	0x15	0.075302675
72	0x12	0.06454515
73	0x19	0.08964604
74	0x1f	0.11116108
75	0x24	0.1290903
76	0x24	0.1290903
77	0x1e	0.107575245
78	0x16	0.07888851
79	0x13	0.068130985
80	0x07	0.02510089
81	0xff	-0.0035858415
82	0x01	0.0035858415
83	0x01	0.0035858415
84	0xff	-0.0035858415
85	0xff	-0.0035858415
86	0xfc	-0.014343366
87	0x07	0.02510089
88	0x09	0.032272574
89	0x0a	0.035858415
90	0x0f	0.053787623
91	0x10	0.057373464
92	0x16	0.07888851
93	0x19	0.08964604
94	0x19	0.08964604
95	0x1c	0.10040356
96	0x21	0.11833277
97	0x23	0.12550445
98	0x22	0.12191861
99	0x1f	0.11116108
100	0x1a	0.09323188
101	0x1e	0.107575245
102	0x28	0.14343366
103	0x1e	0.107575245
104	0x18	0.086060196
105	0x10	0.057373464
106	0x16	0.07888851
107	0x19	0.08964604
108	0x11	0.060959306
109	0x04	0.014343366
110	0x03	0.0107575245
111	0xfe	-0.007171683
112	0x00	0.0
113	0x02	0.007171683
114	0x03	0.0107575245
115	0x06	0.021515049
116	0xff	-0.0035858415
117	0x0c	0.043030098
118	0x06	0.021515049
119	0x06	0.021515049
120	0x0f	0.053787623
121	0x12	0.06454515
122	0x18	0.086060196
123	0x14	0.07171683
124	0x18	0.086060196
125	0x18	0.086060196
126	0x1e	0.107575245
127	0x1f	0.11116108
128	0x20	0.11474693
129	0x1a	0.09323188
130	0x14	0.07171683
131	0x0b	0.039444257
132	0x07	0.02510089
133	0x05	0.017929208
134	0xfc	-0.014343366
135	0xf3	-0.04661594
136	0xfa	-0.021515049
137	0x03	0.0107575245
138	0x0e	0.05020178
139	0x0c	0.043030098
140	0x00	0.0
141	0x00	0.0
142	0x03	0.0107575245
143	0x01	0.0035858415
144	0x00	0.0
145	0x01	0.0035858415
146	0x03	0.0107575245
147	0x08	0.028686732
148	0x05	0.017929208
149	0x03	0.0107575245
150	0x03	0.0107575245
151	0x00	0.0
152	0x04	0.014343366
153	0x02	0.007171683
154	0x09	0.032272574
155	0x06	0.021515049
156	0x0e	0.05020178
157	0x0e	0.05020178
158	0x08	0.028686732
159	0x0d	0.04661594
160	0x09	0.032272574
161	0x02	0.007171683
162	0xf9	-0.02510089
163	0xec	-0.07171683
164	0xfd	-0.0107575245
165	0x0b	0.039444257
166	0x14	0.07171683
167	0x10	0.057373464
168	0x03	0.0107575245
169	0x04	0.014343366
170	0x0a	0.035858415
171	0x12	0.06454515
172	0x0a	0.035858415
173	0x04	0.014343366
174	0x08	0.028686732
175	0x09	0.032272574
176	0x06	0.021515049
177	0x02	0.007171683
178	0xfe	-0.007171683
179	0xfe	-0.007171683
180	0xfd	-0.0107575245
181	0xf9	-0.02510089
182	0xf8	-0.028686732
183	0x00	0.0
184	0x00	0.0
185	0x03	0.0107575245
186	0xff	-0.0035858415
187	0x01	0.0035858415
188	0x05	0.017929208
189	0xff	-0.0035858415
190	0xfa	-0.021515049
191	0xfb	-0.017929208
192	0x0e	0.05020178
193	0x19	0.08964604
194	0x06	0.021515049
195	0x08	0.028686732
196	0x02	0.007171683
197	0x09	0.032272574
198	0x00	0.0
199	0x0e	0.05020178
200	0x13	0.068130985
201	0x0d	0.04661594
202	0x0c	0.043030098
203	0x0d	0.04661594
204	0x0b	0.039444257
205	0x05	0.017929208
206	0x01	0.0035858415
207	0xfb	-0.017929208
208	0xf8	-0.028686732
209	0xf4	-0.043030098
210	0xf4	-0.043030098
211	0xf9	-0.02510089
212	0xf7	-0.032272574
213	0xf9	-0.02510089
214	0xfc	-0.014343366
215	0xfd	-0.0107575245
216	0xfe	-0.007171683
217	0x03	0.0107575245
218	0xfa	-0.021515049
219	0x0b	0.039444257
220	0x1d	0.10398941
221	0x13	0.068130985
222	0x0a	0.035858415
223	0x10	0.057373464
224	0x01	0.0035858415
225	0x08	0.028686732
226	0xfe	-0.007171683
227	0x12	0.06454515
228	0x13	0.068130985
229	0x0c	0.043030098
230	0x11	0.060959306
231	0x12	0.06454515
232	0x0b	0.039444257
233	0x07	0.02510089
234	0x02	0.007171683
235	0xfe	-0.007171683
236	0x02	0.007171683
237	0xfd	-0.0107575245
238	0xf8	-0.028686732
239	0xf6	-0.035858415
240	0xf4	-0.043030098
241	0xf7	-0.032272574
242	0xfe	-0.007171683
243	0x04	0.014343366
244	0x08	0.028686732
245	0x06	0.021515049
246	0x0c	0.043030098
247	0x13	0.068130985
248	0x21	0.11833277
249	0x10	0.057373464
250	0x15	0.075302675
251	0x14	0.07171683
252	0x07	0.02510089
253	0x14	0.07171683
254	0x02	0.007171683
255	0x16	0.07888851

sequential/dense_1/MatMul i1 [10, 128] scale=0.0047741397 zero_point=0
0	0xfc	-0.019096559
1	0x07	0.03341898
2	0x17	0.10980521
3	0x1c	0.13367592
4	0xe0	-0.15277247
5	0x01	0.0047741397
6	0xf2	-0.06683796
7	0xea	-0.10503107
8	0xda	-0.18141732
9	0xfa	-0.028644837
10	0x12	0.08593451
11	0xe2	-0.1432242
12	0xf4	-0.057289675
13	0x0c	0.057289675
14	0xf9	-0.03341898
15	0x08	0.038193118
16	0xe7	-0.119353496
17	0x05	0.0238707
18	0x1c	0.13367592
19	0x1e	0.1432242
20	0x13	0.09070866
21	0xe1	-0.14799833
22	0x26	0.18141732
23	0xed	-0.09070866
24	0x0a	0.0477414
25	0x14	0.0954828
26	0xf1	-0.0716121
27	0xef	-0.081160374
28	0x06	0.028644837
29	0xfe	-0.009548279
30	0xeb	-0.100256935
31	0x00	0.0
32	0x12	0.08593451
33	0xfe	-0.009548279
34	0xf1	-0.0716121
35	0x24	0.17186902
36	0x05	0.0238707
37	0xcf	-0.23393285
38	0xd9	-0.18619145
39	0x11	0.081160374
40	0xde	-0.16232075
41	0xee	-0.08593451
42	0xe6	-0.124127634
43	0xf7	-0.042967256
44	0xfd	-0.014322419
45	0xe6	-0.124127634
46	0x19	0.119353496
47	0xd3	-0.21483628
48	0xdc	-0.17186902
49	0xe6	-0.124127634
50	0xd7	-0.19573973
51	0xdc	-0.17186902
52	0x02	0.009548279
53	0x18	0.11457935
54	0xf5	-0.052515537
55	0x1b	0.12890178
56	0x08	0.038193118
57	0xe2	-0.1432242
58	0x06	0.028644837
59	0x02	0.009548279
60	0x13	0.09070866
61	0xce	-0.23870699
62	0x06	0.028644837
63	0xf5	-0.052515537
64	0xeb	-0.100256935
65	0xc3	-0.2912225
66	0x08	0.038193118
67	0x00	0.0
68	0x0c	0.057289675
69	0x0d	0.062063817
70	0xf6	-0.0477414
71	0xe2	-0.1432242
72	0x26	0.18141732
73	0x27	0.18619145
74	0xed	-0.09070866
75	0xfa	-0.028644837
76	0x00	0.0
77	0xf7	-0.042967256
78	0xff	-0.0047741397
79	0xe6	-0.124127634
80	0xfb	-0.0238707
81	0x01	0.0047741397
82	0x1e	0.1432242
83	0x0c	0.057289675
84	0x0f	0.0716121
85	0xff	-0.0047741397
86	0xef	-0.081160374
87	0xda	-0.18141732
88	0x09	0.042967256
89	0xd4	-0.21006215
90	0xf3	-0.062063817
91	0xf1	-0.0716121
92	0x14	0.0954828
93	0xf3	-0.062063817
94	0x07	0.03341898
95	0xec	-0.0954828
96	0x17	0.10980521
97	0x06	0.028644837
98	0x16	0.10503107
99	0xd0	-0.2291587
100	0xc3	-0.2912225
101	0x1e	0.1432242
102	0x36	0.25780356
103	0x04	0.019096559
104	0x07	0.03341898
105	0x0e	0.06683796
106	0xd7	-0.19573973
107	0x19	0.119353496
108	0x18	0.11457935
109	0xd3	-0.21483628
110	0xcf	-0.23393285
111	0x01	0.0047741397
112	0xbc	-0.3246415
113	0x1d	0.13845006
114	0xd6	-0.20051387
115	0x17	0.10980521
116	0xcc	-0.24825527
117	0x1f	0.14799833
118	0xe6	-0.124127634
119	0x17	0.10980521
120	0xf4	-0.057289675
121	0x06	0.028644837
122	0xf9	-0.03341898
123	0x03	0.014322419
124	0x09	0.042967256
125	0xe5	-0.12890178
126	0xf4	-0.057289675
127	0xdb	-0.17664316
128	0x01	0.0047741397
129	0x0a	0.0477414
130	0xdd	-0.16709489
131	0xdc	-0.17186902
132	0xd8	-0.1909656
133	0x0c	0.057289675
134	0xe6	-0.124127634
135	0x0b	0.052515537
136	0x20	0.15277247
137	0x1b	0.12890178
138	0xd1	-0.22438456
139	0x22	0.16232075
140	0x0a	0.0477414
141	0xf1	-0.0716121
142	0xf9	-0.03341898
143	0x08	0.038193118
144	0x1d	0.13845006
145	0x1b	0.12890178
146	0xcf	-0.23393285
147	0xd2	-0.21961042
148	0xf8	-0.038193118
149	0x1d	0.13845006
150	0xfe	-0.009548279
151	0xc7	-0.27212596
152	0xe2	-0.1432242
153	0x07	0.03341898
154	0x22	0.16232075
155	0x15	0.100256935
156	0xfd	-0.014322419
157	0x13	0.09070866
158	0x13	0.09070866
159	0x05	0.0238707
160	0x13	0.09070866
161	0xf9	-0.03341898
162	0xfe	-0.009548279
163	0xd5	-0.20528801
164	0x12	0.08593451
165	0xdb	-0.17664316
166	0x12	0.08593451
167	0xca	-0.25780356
168	0x1c	0.13367592
169	0x12	0.08593451
170	0x15	0.100256935
171	0x19	0.119353496
172	0x02	0.009548279
173	0x25	0.17664316
174	0xcd	-0.24348113
175	0x1a	0.124127634
176	0xf2	-0.06683796
177	0xe2	-0.1432242
178	0x0b	0.052515537
179	0x0a	0.0477414
180	0x1b	0.12890178
181	0xd6	-0.20051387
182	0x1d	0.13845006
183	0xd5	-0.20528801
184	0x06	0.028644837
185	0x01	0.0047741397
186	0x0c	0.057289675
187	0xfc	-0.019096559
188	0x3d	0.2912225
189	0xd9	-0.18619145
190	0xd1	-0.22438456
191	0x01	0.0047741397
192	0x1c	0.13367592
193	0x04	0.019096559
194	0xf5	-0.052515537
195	0x02	0.009548279
196	0xfe	-0.009548279
197	0xe0	-0.15277247
198	0x08	0.038193118
199	0x18	0.11457935
200	0xda	-0.18141732
201	0xd7	-0.19573973
202	0x08	0.038193118
203	0xec	-0.0954828
204	0xf2	-0.06683796
205	0x1f	0.14799833
206	0xfe	-0.009548279
207	0xe8	-0.11457935
208	0xe9	-0.10980521
209	0x11	0.081160374
210	0x02	0.009548279
211	0xe1	-0.14799833
212	0xe2	-0.1432242
213	0xeb	-0.100256935
214	0xf6	-0.0477414
215	0xbe	-0.31509322
216	0xdf	-0.15754661
217	0x17	0.10980521
218	0x0d	0.062063817
219	0x0d	0.062063817
220	0x21	0.15754661
221	0xd3	-0.21483628
222	0x0c	0.057289675
223	0x04	0.019096559
224	0xf9	-0.03341898
225	0x04	0.019096559
226	0xc2	-0.29599667
227	0x18	0.11457935
228	0x1f	0.14799833
229	0xd2	-0.21961042
230	0x05	0.0238707
231	0xed	-0.09070866
232	0xf7	-0.042967256
233	0xd3	-0.21483628
234	0xcb	-0.2530294
235	0x28	0.1909656
236	0x1f	0.14799833
237	0xe0	-0.15277247
238	0x0e	0.06683796
239	0xfb	-0.0238707
240	0x1c	0.13367592
241	0xc2	-0.29599667
242	0xce	-0.23870699
243	0x09	0.042967256
244	0x25	0.17664316
245	0xc4	-0.2864484
246	0xd5	-0.20528801
247	0xfa	-0.028644837
248	0x0a	0.0477414
249	0xd5	-0.20528801
250	0x01	0.0047741397
251	0xf9	-0.03341898
252	0x28	0.1909656
253	0xf2	-0.06683796
254	0xd5	-0.20528801
255	0x18	0.11457935
