DeepLearning(Phase2)/Depricated(Phase1)/SavedTFliteModels/mnist_model_dwt_haar_lvl1_thresh0_15_quantized_2024-03-19.tflite (tflite, 104288 bytes, 4 tensors)

sequential/dense/BiasAdd/ReadVariableOp f4 [128]
-0.12898913 -0.18580349 0.08791735 -0.024398632 -0.19605538 -0.006000507 -0.005998053 -0.11273407
-0.0059995027 -0.0059995027 -0.0060019568 -0.0059990934 -0.17926821 -0.10095221 0.062483534 0.31208202
0.19147065 0.19147065 0.062498976 -0.16548087 0.327932 -0.07452835 0.33526164 -0.0059877243
0.40992883 -0.06290247 0.0717285 0.0717285 0.0015794833 0.29249218 0.14673597 -0.005991545
-0.047041524 0.10878173 0.20661107 -0.15298168 -0.15500556 -0.06535363 0.29415423 -0.00598016
-0.25931525 -0.0059661083 0.30837795 0.30837795 0.13258815 -0.00590894 -0.05852077 0.14681947
-0.0059778434 -0.17600751 -0.0059616053 -0.005961609 -0.0059913383 -0.005991306 -0.005940565 0.1413366
-0.11742621 -0.005985162 -0.0039699525 -0.0051133875 -0.03320406 0.010131055 0.12629338 -0.0059911627
0.19133788 0.17587443 -0.0059025805 -0.0059025805 -0.0059930366 -0.0059930347 -0.00599257 -0.00599257
-0.0007731876 0.028360331 -0.005765942 -0.005922455 0.025441179 0.21248375 -0.005902069 0.21116917
-0.22439915 -0.0073960344 0.052593045 -0.050102312 0.0 0.0 0.0 0.0
0.0 0.0 0.0 0.0 0.0 0.0 0.0 0.0
-0.102554135 0.044806004 0.3031388 0.0019989435 0.23087898 0.09555971 -0.006003806 -0.050346106
-0.0059969607 0.08670466 -0.005983077 -0.0059910384 -0.0059957257 0.19733727 0.005830013 0.17743078
0.15617444 -0.08420258 -0.0059860223 0.00095540134 0.017580563 0.283929 0.23982649 0.039247844
-0.005993391 -0.0059933956 -0.04964982 -0.20373704 0.32807636 -0.015749652 -0.0059999344 -0.034753628
00000000: ba15 04be 4543 3ebe 030e b43d a4df c7bc
00000010: bec2 48be e79f c4bb 518b c4bb 1fe1 e6bd
00000020: 7a97 c4bb 7a97 c4bb 10ac c4bb 0b94 c4bb
00000030: 1692 37be 08c0 cebd bcee 7f3d 37c9 9f3e
00000040: e210 443e e210 443e edfe 7f3d d173 29be
00000050: b4e6 a73e 52a2 98bd 6aa7 ab3e ac34 c4bb
00000060: 31e2 d13e 03d3 80bd 64e6 923d 64e6 923d
00000070: aa06 cf3a 89c1 953e f441 163e b954 c4bb
00000080: 9dae 40bd f5c8 de3d da91 533e 3ba7 1cbe
00000090: c7b9 1ebe 20d8 85bd 629b 963e 38f5 c3bb
000000a0: f8c4 84be 587f c3bb b7e3 9d3e b7e3 9d3e
000000b0: 30c5 073e c89f c1bb 7ab3 6fbd d857 163e
000000c0: c9e1 c3bb 503b 34be 9259 c3bb 9a59 c3bb
000000d0: fd52 c4bb b852 c4bb 12a9 c2bb 8bba 103e
000000e0: 277d f0bd 2e1f c4bb 6016 82bb 348e a7bb
000000f0: fb00 08bd b9fc 253c 0d53 013e 8451 c4bb
00000100: 14ee 433e 6d18 343e 6f6a c1bb 6f6a c1bb
00000110: 3c61 c4bb 3861 c4bb 525d c4bb 525d c4bb
00000120: beaf 4aba ed53 e83c 3af0 bcbb 2711 c2bb
00000130: 056a d03c 5795 593e 2566 c1bb bb3c 583e
00000140: e4c8 65be 6f5a f2bb ce6b 573d 1538 4dbd
00000150: 0000 0000 0000 0000 0000 0000 0000 0000
00000160: 0000 0000 0000 0000 0000 0000 0000 0000
00000170: 0000 0000 0000 0000 0000 0000 0000 0000
00000180: e707 d2bd 8086 373d 0235 9b3e b500 033b
00000190: 8a6b 6c3e cfb4 c33d 93bb c4bb b837 4ebd
000001a0: 2782 c4bb 3692 b13d b00d c4bb 7950 c4bb
000001b0: cb77 c4bb c812 4a3e b209 bf3b 6ab0 353e
000001c0: 31ec 1f3e 6772 acbd 6526 c4bb e673 7a3a
000001d0: 1d05 903c 245f 913e 1395 753e 59c2 203d
000001e0: 3564 c4bb 3f64 c4bb 9c5d 4bbd 71a0 50be
000001f0: a0f9 a73e 6a05 81bc 199b c4bb d259 0ebd

sequential/dense_1/BiasAdd/ReadVariableOp f4 [10]
-0.2671458 0.021742372 -0.102319434 -0.10619674 0.11492742 0.21339355 -0.050393946 -0.069845214
0.06946434 0.049339883
00000000: 56c7 88be 0f1d b23c da8c d1bd ad7d d9bd
00000010: 115f eb3d d783 5a3e e269 4ebd 020b 8fbd
00000020: 5243 8e3d 9e18 4a3d

sequential/dense/MatMul i1 [128, 784] scale=0.009591962 zero_point=0
0.0 0.0 0.0 0.0 0.0 0.0 0.0 0.0
0.0 0.0 0.0 0.0 0.0 0.0 0.0 0.0
0.0 0.0 0.0 0.0 0.0 0.0 0.0 0.0
0.0 0.0 0.0 0.0 0.0 0.0 0.0 0.0
0.0 0.0 -0.009591962 -0.028775886 -0.028775886 -0.03836785 -0.03836785 -0.028775886
-0.13428748 -0.08632766 0.0 0.019183924 0.03836785 0.009591962 0.0 -0.009591962
-0.009591962 -0.028775886 -0.009591962 0.0 0.0 0.0 0.0 0.0
0.0 0.0 0.0 0.0 -0.05755177 0.03836785 0.03836785 -0.028775886
-0.14387943 -0.21102317 -0.34531063 -0.46041417 0.0767357 0.009591962 0.028775886 -0.24939102
-0.3836785 -0.2781669 -0.28775886 -0.22061513 -0.22061513 -0.11510354 -0.16306336 -0.028775886
0.028775886 0.06714374 0.0 0.0 0.0 0.0 0.11510354 0.095919624
0.019183924 -0.095919624 0.0 -0.009591962 -0.03836785 0.13428748 0.095919624 0.0
0.3069428 0.24939102 0.019183924 -0.13428748 -0.26857495 -0.22061513 -0.28775886 -0.23020709
-0.2014312 -0.3069428 -0.1534714 -0.22061513 0.009591962 0.2014312 0.1534714 0.0
0.0 0.0 0.11510354 -0.095919624 -0.23020709 -0.22061513 0.24939102 0.41245437
0.26857495 0.5851097 0.39327046 0.44123027 0.42204633 0.18224728 0.08632766 0.10551158
0.10551158 0.05755177 -0.06714374 -0.17265531 -0.0767357 -0.17265531 -0.19183925 -0.18224728
-0.06714374 0.0767357 0.3357187 0.03836785 0.0 0.0 0.13428748 0.3836785
0.24939102 -0.11510354 0.095919624 0.06714374 -0.23020709 -0.047959812 0.18224728 0.13428748
-0.009591962 0.03836785 0.17265531 0.18224728 0.19183925 0.18224728 0.009591962 -0.10551158
0.10551158 0.23979905 0.23020709 -0.12469551 0.009591962 0.46041417 0.17265531 -0.08632766
0.0 0.12469551 -0.009591962 0.10551158 -0.019183924 -0.17265531 0.03836785 0.028775886
-0.0767357 -0.03836785 0.18224728 0.12469551 0.08632766 0.08632766 0.14387943 0.18224728
0.10551158 0.11510354 0.10551158 -0.12469551 -0.22061513 -0.13428748 -0.009591962 0.019183924
-0.095919624 0.11510354 0.17265531 0.095919624 -0.009591962 0.23020709 -0.10551158 -0.05755177
-0.028775886 -0.06714374 -0.0767357 0.03836785 0.0767357 -0.047959812 0.08632766 0.0767357
0.047959812 0.095919624 0.19183925 0.17265531 0.13428748 -0.028775886 0.23979905 -0.047959812
-0.258983 -0.095919624 0.047959812 -0.06714374 -0.31653476 -0.23020709 -0.019183924 0.13428748
-0.028775886 -0.05755177 -0.19183925 0.06714374 0.05755177 -0.05755177 -0.03836785 -0.03836785
-0.0767357 -0.019183924 0.06714374 0.03836785 0.12469551 0.19183925 0.13428748 0.009591962
0.17265531 0.16306336 0.0767357 0.019183924 0.0 -0.047959812 0.11510354 0.05755177
-0.21102317 -0.047959812 0.24939102 0.3069428 -0.10551158 -0.10551158 -0.047959812 0.019183924
00000000: 0000 0000 0000 0000 0000 0000 0000 0000
00000010: 0000 0000 0000 0000 0000 0000 0000 0000
00000020: 0000 fffd fdfc fcfd f2f7 0002 0401 00ff
00000030: fffd ff00 0000 0000 0000 0000 fa04 04fd
00000040: f1ea dcd0 0801 03e6 d8e3 e2e9 e9f4 effd
00000050: 0307 0000 0000 0c0a 02f6 00ff fc0e 0a00
00000060: 201a 02f2 e4e9 e2e8 ebe0 f0e9 0115 1000
00000070: 0000 0cf6 e8e9 1a2b 1c3d 292e 2c13 090b
00000080: 0b06 f9ee f8ee eced f908 2304 0000 0e28
00000090: 1af4 0a07 e8fb 130e ff04 1213 1413 01f5
000000a0: 0b19 18f3 0130 12f7 000d ff0b feee 0403
000000b0: f8fc 130d 0909 0f13 0b0c 0bf3 e9f2 ff02
000000c0: f60c 120a ff18 f5fa fdf9 f804 08fb 0908
000000d0: 050a 1412 0efd 19fb e5f6 05f9 dfe8 fe0e
000000e0: fdfa ec07 06fa fcfc f8fe 0704 0d14 0e01
000000f0: 1211 0802 00fb 0c06 eafb 1a20 f5f5 fb02

sequential/dense_1/MatMul i1 [10, 128] scale=0.011135072 zero_point=0
0.16702609 0.13362087 0.5901588 0.26724175 0.011135072 0.0 0.011135072 -0.03340522
0.0 0.0 0.022270145 0.022270145 0.11135072 0.10021565 -0.13362087 -0.022270145
0.06681044 0.06681044 0.03340522 -1.068967 0.011135072 0.21156637 -0.022270145 -0.022270145
-0.6012939 0.08908058 0.07794551 0.07794551 0.15589102 -1.0132916 -0.9576162 0.0
0.04454029 -0.04454029 -0.122485794 -1.0244267 0.06681044 -0.05567536 -0.924211 0.011135072
0.21156637 -0.06681044 -0.18929623 -0.18929623 0.08908058 0.022270145 0.23383652 -0.9687513
0.0 -0.25610667 0.022270145 0.022270145 0.011135072 0.011135072 0.011135072 0.08908058
0.54561853 -0.03340522 -0.011135072 -0.011135072 0.14475594 -0.15589102 0.13362087 -0.011135072
-0.03340522 0.04454029 -0.011135072 -0.011135072 0.06681044 0.06681044 -0.022270145 -0.022270145
0.07794551 -0.07794551 -0.04454029 -0.04454029 0.14475594 0.13362087 -0.011135072 -0.27837682
0.11135072 0.0 -0.54561853 -0.45653796 0.0 0.0 0.03340522 -0.03340522
0.011135072 0.011135072 -0.03340522 0.04454029 0.011135072 0.011135072 0.011135072 0.011135072
0.22270145 -0.2895119 -0.70150954 0.23383652 -0.022270145 -0.122485794 -0.04454029 0.07794551
0.0 -0.2004313 0.0 0.0 0.011135072 0.10021565 -0.13362087 0.011135072
0.15589102 -0.3674574 -0.011135072 0.011135072 0.21156637 -0.022270145 0.4454029 0.30064696
0.022270145 0.022270145 -0.22270145 0.03340522 -0.16702609 0.08908058 0.011135072 -0.122485794
0.0 0.4454029 -0.5678887 -0.50107825 0.17816116 0.0 0.011135072 0.03340522
0.0 0.0 0.022270145 0.022270145 0.04454029 0.18929623 0.122485794 0.17816116
0.05567536 0.05567536 0.122485794 -0.13362087 0.45653796 0.13362087 -0.022270145 0.04454029
-0.42313275 0.03340522 -0.3674574 -0.3674574 -0.45653796 0.11135072 0.55675364 0.0
-0.022270145 -0.15589102 -0.50107825 0.16702609 0.38972753 0.25610667 0.15589102 -0.06681044
-0.46767303 0.06681044 -0.5233484 -0.5233484 -0.05567536 0.022270145 -0.26724175 0.21156637
0.0 0.13362087 0.022270145 0.022270145 0.022270145 0.022270145 0.011135072 0.8574006
-0.10021565 -0.03340522 -0.05567536 -0.05567536 0.10021565 -0.04454029 -0.9130759 -0.011135072
-0.54561853 -0.8017252 0.011135072 0.011135072 -0.04454029 -0.04454029 -0.022270145 -0.022270145
0.42313275 0.4008626 -0.04454029 -0.04454029 -0.3674574 0.06681044 -0.011135072 0.22270145
-0.10021565 0.0 -0.18929623 -0.14475594 0.0 0.0 0.03340522 -0.03340522
-0.011135072 -0.011135072 0.04454029 -0.03340522 0.011135072 0.011135072 0.011135072 0.011135072
0.22270145 -0.122485794 0.18929623 -0.70150954 0.61242896 -0.4454029 0.011135072 -0.37859246
-0.011135072 0.022270145 0.0 0.0 0.011135072 -0.011135072 0.11135072 0.25610667
-0.38972753 0.11135072 -0.011135072 -0.48994318 -0.35632232 0.25610667 0.31178203 0.18929623
0.022270145 0.022270145 -0.62356406 -0.5678887 0.15589102 -0.22270145 0.0 -0.77945507
00000000: 0f0c 3518 0100 01fd 0000 0202 0a09 f4fe
00000010: 0606 03a0 0113 fefe ca08 0707 0ea5 aa00
00000020: 04fc f5a4 06fb ad01 13fa efef 0802 15a9
00000030: 00e9 0202 0101 0108 31fd ffff 0df2 0cff
00000040: fd04 ffff 0606 fefe 07f9 fcfc 0d0c ffe7
00000050: 0a00 cfd7 0000 03fd 0101 fd04 0101 0101
00000060: 14e6 c115 fef5 fc07 00ee 0000 0109 f401
00000070: 0edf ff01 13fe 281b 0202 ec03 f108 01f5
00000080: 0028 cdd3 1000 0103 0000 0202 0411 0b10
00000090: 0505 0bf4 290c fe04 da03 dfdf d70a 3200
000000a0: fef2 d30f 2317 0efa d606 d1d1 fb02 e813
000000b0: 000c 0202 0202 014d f7fd fbfb 09fc aeff
000000c0: cfb8 0101 fcfc fefe 2624 fcfc df06 ff14
000000d0: f700 eff3 0000 03fd ffff 04fd 0101 0101
000000e0: 14f5 11c1 37d8 01de ff02 0000 01ff 0a17
000000f0: dd0a ffd4 e017 1c11 0202 c8cd 0eec 00ba
