DeepLearning(Phase2)/Depricated(Phase1)/SavedTFliteModels/mnist_model_dwt_haar_lvl2_thresh0_1_quantized_2024-03-19.tflite (tflite, 104288 bytes, 4 tensors)

sequential/dense/BiasAdd/ReadVariableOp f4 [128]
000000 c0 65 a7 bc ce e6 29 bd 38 7b a5 bc 71 7a 15 3d
       -0.02043426 -0.041479878 -0.020200357 0.036493722
000010 71 5c 14 3d e1 c1 03 bc 17 05 96 bd 2d 9e 98 3d
       0.03622097 -0.00804183 -0.073251896 0.07452045
000020 70 a6 c4 bb ac 6b 4d 3e fe 17 5c 3d 4d 7a c4 bb
       -0.006001286 0.20060605 0.05373382 -0.0059960247
000030 a3 4f 92 3d 29 96 75 3e 8c 6a 69 3d 2d fd bc 3d
       0.07144096 0.23983063 0.056986377 0.09227977
000040 7f 39 df bb 0c ff 25 be 8e 26 99 bb 38 ff 0b 3d
       -0.006812274 -0.16210574 -0.0046737855 0.034178942
000050 d3 a8 c4 bb 61 73 04 3e d9 ff 2d 3d e2 57 06 3e
       -0.0060015707 0.12934639 0.042480323 0.13119462
000060 30 13 92 bc 4c 0f 97 3e bd 0d 16 3e 54 f2 4c bd
       -0.017831415 0.29503858 0.14653678 -0.05003579
000070 58 87 b7 bd 43 15 2a bd fc 64 87 bb 23 76 a8 bd
       -0.08961362 -0.041524183 -0.0041319113 -0.08225658
000080 42 ad 9e bd 1d cf 18 3d a6 a0 e3 bd 39 df f9 3b
       -0.0774789 0.037306894 -0.11114626 0.007625487
000090 5f a2 2a 3e 89 13 8b 3c 77 ad c1 3c 09 ba 05 3e
       0.16663502 0.016977089 0.023642285 0.13059248
0000a0 6f 00 ef bd 2d 42 c1 bd 63 08 43 bd 07 f2 77 3e
       -0.116700046 -0.0943645 -0.04761542 0.2421342
0000b0 ea 01 46 3d 8a 66 fd 3c 42 31 9d bc 12 29 bb 3c
       0.04834167 0.030932683 -0.019188527 0.022846732
0000c0 fe d3 d9 bd 53 c2 c4 bb d5 81 5a bc 93 c1 c4 bb
       -0.106361374 -0.0060046106 -0.013336618 -0.006004521
0000d0 5a d7 67 bd 71 9f 36 bd a2 07 79 3d e1 89 ef bc
       -0.05660186 -0.04458565 0.060798295 -0.02924055
0000e0 5a 18 d6 bd e2 10 0f bc 30 a3 3c bc 70 06 4f 3c
       -0.104538634 -0.0087320525 -0.011513516 0.012635812
0000f0 0a 34 93 bc 3b 00 a2 bb 86 80 82 3d 59 31 6a 3e
       -0.01796915 -0.004943875 0.0637217 0.22870387
000100 19 9d 0a 3e 2b a8 1e 3e e2 22 71 3d 90 d3 9d bc
       0.1353649 0.15493838 0.058871157 -0.01926592
000110 c1 9f c4 bb 79 bd e0 bd 33 ef 0e 3e 60 74 0a 3e
       -0.0060004895 -0.10973639 0.13958435 0.13520956
000120 88 10 a4 3d 02 04 a4 bd 5e 2f bd 3c 52 95 e9 3d
       0.080109656 -0.08008577 0.023093875 0.11405434
000130 81 a5 92 bc 77 83 c4 bb b5 2e 02 3e ee 09 72 3d
       -0.017901184 -0.005997117 0.1271313 0.0590915
000140 f0 3a 68 3d 98 b0 09 bc 0a 36 f2 3c 4d d0 93 3c
       0.056696832 -0.00840392 0.029566783 0.018043661
000150 9a 64 0c bd 33 5e 13 bd 0c a7 f1 3d 04 25 4f 3e
       -0.03427563 -0.035978507 0.1179944 0.20228964
000160 6c 67 3d 3e d8 b6 8d 3d d3 53 14 bd 78 58 9b 3d
       0.18496484 0.0691964 -0.036212754 0.075852334
000170 be 9e ab 3c 13 38 07 3e 8b 9e 3d 3c 07 c1 6b 3d
       0.020949718 0.13204984 0.011573444 0.057557132
000180 97 0f fe 3d 3d 42 d5 3d 37 d7 de 3d 55 5c ea 3c
       0.12405317 0.104130246 0.10880893 0.02860848
000190 e7 d4 d5 bb a2 7e 0f be 2c 92 99 bb 81 ee a1 3d
       -0.006525624 -0.1401315 -0.0046866145 0.07906819
0001a0 1a aa 3f 3c c8 70 b3 bd b3 07 5f 3e ea 6d b1 3d
       0.01169827 -0.08761746 0.21780281 0.086635426
0001b0 d4 d5 a0 bd 12 88 b9 bd e2 6c bb 3d 99 d9 83 bd
       -0.078532845 -0.090591565 0.09151627 -0.06437988
0001c0 62 16 cd b8 80 f9 43 3e 62 b9 08 be a9 3b fd 3c
       -9.779331e-05 0.19138145 -0.13351968 0.030912237
0001d0 71 da 4e bd d1 68 62 bc 49 d0 cc 3c 4e 4b 18 3d
       -0.05050129 -0.0138189355 0.025001662 0.03718119
0001e0 d5 56 c8 3c c7 b3 c4 bb 24 54 c4 bb 3e 1d aa 3b
       0.024455467 -0.0060028764 -0.0059914757 0.005191474
0001f0 ba d5 eb 3d dd c1 5f 3c 67 2e ca 3d 85 59 18 bc
       0.115153745 0.01365706 0.09872132 -0.009298687

sequential/dense_1/BiasAdd/ReadVariableOp f4 [10]
000000 9a 0e bf bd c0 e3 d1 3c 13 95 0a bc 08 73 94 bd
       -0.09328957 0.025621295 -0.008458394 -0.07248503
000010 f1 34 92 3d d4 1e e0 3d a3 17 96 bc 20 f7 0e 3d
       0.07139004 0.1094338 -0.018321818 0.034903646
000020 91 b9 47 bd 67 ab f4 bc
       -0.048760954 -0.029866887

sequential/dense/MatMul i1 [128, 784] scale=0.005779845 zero_point=0
000000 00 00 00 00 00 00 00 00 00 00 00 00 04 07 0b 01
       0.0 0.0 0.0 0.0 0.0 0.0 0.0 0.0 0.0 0.0 0.0 0.0 0.02311938 0.040458918 0.0635783 0.005779845
000010 00 00 00 00 01 01 ff ff 00 00 00 00 00 00 00 00
       0.0 0.0 0.0 0.0 0.005779845 0.005779845 -0.005779845 -0.005779845 0.0 0.0 0.0 0.0 0.0 0.0 0.0 0.0
000020 01 04 03 05 09 09 0b 14 14 05 02 22 19 0e 0c 17
       0.005779845 0.02311938 0.017339535 0.028899226 0.052018605 0.052018605 0.0635783 0.115596905 0.115596905 0.028899226 0.01155969 0.19651474 0.14449613 0.080917835 0.06935814 0.13293643
000030 1b 10 0d 05 02 02 02 02 00 00 01 10 12 04 01 06
       0.15605582 0.09247752 0.07513799 0.028899226 0.01155969 0.01155969 0.01155969 0.01155969 0.0 0.0 0.005779845 0.09247752 0.10403721 0.02311938 0.005779845 0.03467907
000040 0b 0d 15 1a 1b 11 0d 27 1d 04 15 18 19 21 1f 1e
       0.0635783 0.07513799 0.121376745 0.15027598 0.15605582 0.09825737 0.07513799 0.22541396 0.1676155 0.02311938 0.121376745 0.13871628 0.14449613 0.1907349 0.1791752 0.17339535
000050 15 0e 00 00 00 00 0d 10 f8 fb 02 00 07 00 fb 0d
       0.121376745 0.080917835 0.0 0.0 0.0 0.0 0.07513799 0.09247752 -0.04623876 -0.028899226 0.01155969 0.0 0.040458918 0.0 -0.028899226 0.07513799
000060 13 20 20 1f 24 0e 01 fb f0 f6 03 19 13 f2 f6 00
       0.10981706 0.18495505 0.18495505 0.1791752 0.20807442 0.080917835 0.005779845 -0.028899226 -0.09247752 -0.057798453 0.017339535 0.14449613 0.10981706 -0.080917835 -0.057798453 0.0
000070 00 00 11 04 fa f3 fd f1 f5 f1 f2 06 05 10 23 28
       0.0 0.0 0.09825737 0.02311938 -0.03467907 -0.07513799 -0.017339535 -0.086697675 -0.0635783 -0.086697675 -0.080917835 0.03467907 0.028899226 0.09247752 0.20229459 0.23119381
000080 27 1d 0b 07 f8 e4 ec ed d9 e5 08 10 00 00 1f f0
       0.22541396 0.1676155 0.0635783 0.040458918 -0.04623876 -0.16183567 -0.115596905 -0.10981706 -0.22541396 -0.15605582 0.04623876 0.09247752 0.0 0.0 0.1791752 -0.09247752
000090 fd f9 fb f0 ef ea f1 f5 f2 06 13 1c 1d 1e 15 0d
       -0.017339535 -0.040458918 -0.028899226 -0.09247752 -0.09825737 -0.1271566 -0.086697675 -0.0635783 -0.080917835 0.03467907 0.10981706 0.16183567 0.1676155 0.17339535 0.121376745 0.07513799
0000a0 f7 f7 ef e6 e9 e1 f1 f5 00 f8 f8 fe fa fe fa f5
       -0.052018605 -0.052018605 -0.09825737 -0.15027598 -0.13293643 -0.1791752 -0.086697675 -0.0635783 0.0 -0.04623876 -0.04623876 -0.01155969 -0.03467907 -0.01155969 -0.03467907 -0.0635783
0000b0 ec ea f7 fd f7 f9 00 07 1c 2c 2c 17 09 0a ff ea
       -0.115596905 -0.1271566 -0.052018605 -0.017339535 -0.052018605 -0.040458918 0.0 0.040458918 0.16183567 0.2543132 0.2543132 0.13293643 0.052018605 0.057798453 -0.005779845 -0.1271566
0000c0 cd d0 e8 02 00 f8 fe fd fd f2 f1 f3 ef f8 f7 f6
       -0.29477212 -0.27743256 -0.13871628 0.01155969 0.0 -0.04623876 -0.01155969 -0.017339535 -0.017339535 -0.080917835 -0.086697675 -0.07513799 -0.09825737 -0.04623876 -0.052018605 -0.057798453
0000d0 f7 ef ee 06 1a 2c 31 25 15 12 0d f5 db d7 e7 05
       -0.052018605 -0.09825737 -0.10403721 0.03467907 0.15027598 0.2543132 0.28321242 0.21385427 0.121376745 0.10403721 0.07513799 -0.0635783 -0.21385427 -0.23697366 -0.14449613 0.028899226
0000e0 10 10 fe f8 ee ec f4 fb 00 fb f6 ee ec e6 f5 06
       0.09247752 0.09247752 -0.01155969 -0.04623876 -0.10403721 -0.115596905 -0.06935814 -0.028899226 0.0 -0.028899226 -0.057798453 -0.10403721 -0.115596905 -0.15027598 -0.0635783 0.03467907
0000f0 15 1c 1f 26 16 10 0f fb db d2 ea f5 01 0d fc f8
       0.121376745 0.16183567 0.1791752 0.21963412 0.1271566 0.09247752 0.086697675 -0.028899226 -0.21385427 -0.26587287 -0.1271566 -0.0635783 0.005779845 0.07513799 -0.02311938 -0.04623876

sequential/dense_1/MatMul i1 [10, 128] scale=0.0076753288 zero_point=0
000000 18 15 0f 03 fc fe 08 f9 fe f7 0c 00 23 fe c8 e8
       0.18420789 0.1611819 0.11512993 0.023025986 -0.030701315 -0.0153506575 0.06140263 -0.053727303 -0.0153506575 -0.06907796 0.09210394 0.0 0.2686365 -0.0153506575 -0.42981842 -0.18420789
000010 fb 03 de 0e 03 fe ce 02 fc f5 1d 0b 0a 19 d7 fe
       -0.038376644 0.023025986 -0.26096117 0.107454605 0.023025986 -0.0153506575 -0.38376644 0.0153506575 -0.030701315 -0.084428616 0.22258453 0.084428616 0.07675329 0.19188322 -0.31468847 -0.0153506575
000020 f7 ee 05 f8 e6 f0 0c 24 eb e7 10 19 0f 13 e6 e4
       -0.06907796 -0.13815592 0.038376644 -0.06140263 -0.19955854 -0.12280526 0.09210394 0.27631184 -0.1611819 -0.19188322 0.12280526 0.19188322 0.11512993 0.14583124 -0.19955854 -0.21490921
000030 04 04 df 03 0c 00 f0 fd 01 12 fa de 0c f4 fa ee
       0.030701315 0.030701315 -0.25328586 0.023025986 0.09210394 0.0 -0.12280526 -0.023025986 0.0076753288 0.13815592 -0.04605197 -0.26096117 0.09210394 -0.09210394 -0.04605197 -0.13815592
000040 13 cc ff 1f fe fb ce e1 d5 0e db fc 07 04 03 e2
       0.14583124 -0.39911708 -0.0076753288 0.23793519 -0.0153506575 -0.038376644 -0.38376644 -0.23793519 -0.33003914 0.107454605 -0.28398716 -0.030701315 0.053727303 0.030701315 0.023025986 -0.23025987
000050 f8 fc 12 16 e0 e6 e9 f7 ba 9e 15 cd 05 0c 10 e4
       -0.06140263 -0.030701315 0.13815592 0.16885723 -0.24561052 -0.19955854 -0.17653257 -0.06907796 -0.537273 -0.75218225 0.1611819 -0.39144176 0.038376644 0.09210394 0.12280526 -0.21490921
000060 07 f3 ed c0 05 12 f2 fb 19 ab 0d de e2 12 0c 12
       0.053727303 -0.09977927 -0.14583124 -0.49122104 0.038376644 0.13815592 -0.107454605 -0.038376644 0.19188322 -0.65240294 0.09977927 -0.26096117 -0.23025987 0.13815592 0.09210394 0.13815592
000070 e9 b3 0e 25 1a 0e dc c1 e2 12 03 04 cc 03 fb dd
       -0.17653257 -0.5910003 0.107454605 0.28398716 0.19955854 0.107454605 -0.27631184 -0.48354572 -0.23025987 0.13815592 0.023025986 0.030701315 -0.39911708 0.023025986 -0.038376644 -0.2686365
000080 15 1b d9 49 06 fe 05 f6 fc ea f1 fa cd 08 fa 1c
       0.1611819 0.20723388 -0.29933783 0.560299 0.04605197 -0.0153506575 0.038376644 -0.07675329 -0.030701315 -0.16885723 -0.11512993 -0.04605197 -0.39144176 0.06140263 -0.04605197 0.21490921
000090 fc 09 c5 0c fb e3 30 14 08 12 ec e4 0c 12 d1 e0
       -0.030701315 0.06907796 -0.4528444 0.09210394 -0.038376644 -0.22258453 0.36841577 0.15350658 0.06140263 0.13815592 -0.15350658 -0.21490921 0.09210394 0.13815592 -0.36074045 -0.24561052
0000a0 ef e2 f0 f7 b7 14 f2 12 f6 f1 f3 49 e1 e3 09 09
       -0.13048059 -0.23025987 -0.12280526 -0.06907796 -0.560299 0.15350658 -0.107454605 0.13815592 -0.07675329 -0.11512993 -0.09977927 0.560299 -0.23793519 -0.22258453 0.06907796 0.06907796
0000b0 e5 fe ff fc de fa 2d f8 0b f3 04 0b 01 03 c1 02
       -0.20723388 -0.0153506575 -0.0076753288 -0.030701315 -0.26096117 -0.04605197 0.34538978 -0.06140263 0.084428616 -0.09977927 0.030701315 0.084428616 0.0076753288 0.023025986 -0.48354572 0.0153506575
0000c0 11 c4 23 f6 fa 0f 11 12 15 ec 1e 2f 05 01 04 f6
       0.13048059 -0.46051973 0.2686365 -0.07675329 -0.04605197 0.11512993 0.13048059 0.13815592 0.1611819 -0.15350658 0.23025987 0.36074045 0.038376644 0.0076753288 0.030701315 -0.07675329
0000d0 0b fe e2 e8 18 14 04 0d 1b 15 d6 17 1f fb d6 09
       0.084428616 -0.0153506575 -0.23025987 -0.18420789 0.18420789 0.15350658 0.030701315 0.09977927 0.20723388 0.1611819 -0.3223638 0.17653257 0.23793519 -0.038376644 -0.3223638 0.06907796
0000e0 d4 f6 e4 f6 06 f5 10 1a 16 d9 df fa dc 11 d7 f0
       -0.33771446 -0.07675329 -0.21490921 -0.07675329 0.04605197 -0.084428616 0.12280526 0.19955854 0.16885723 -0.29933783 -0.25328586 -0.04605197 -0.27631184 0.13048059 -0.31468847 -0.12280526
0000f0 12 15 d9 0c cc ed 0d 11 d6 12 03 f7 12 dd f3 f3
       0.13815592 0.1611819 -0.29933783 0.09210394 -0.39911708 -0.14583124 0.09977927 0.13048059 -0.3223638 0.13815592 0.023025986 -0.06907796 0.13815592 -0.2686365 -0.09977927 -0.09977927
